node {
  name: "input/TextLineReaderV2"
  op: "TextLineReaderV2"
  attr {
    key: "_output_shapes"
    value {
      list {
        shape {
        }
      }
    }
  }
  attr {
    key: "container"
    value {
      s: ""
    }
  }
  attr {
    key: "shared_name"
    value {
      s: ""
    }
  }
  attr {
    key: "skip_header_lines"
    value {
      i: 0
    }
  }
}
node {
  name: "input/input_producer/Const"
  op: "Const"
  attr {
    key: "_output_shapes"
    value {
      list {
        shape {
          dim {
            size: 1000
          }
        }
      }
    }
  }
  attr {
    key: "dtype"
    value {
      type: DT_STRING
    }
  }
  attr {
    key: "value"
    value {
      tensor {
        dtype: DT_STRING
        tensor_shape {
          dim {
            size: 1000
          }
        }
        string_val: "diffbot_data/prepareSubset-20170712/triples.txt"
        string_val: "diffbot_data/prepareSubset-20170712/triples.txt"
        string_val: "diffbot_data/prepareSubset-20170712/triples.txt"
        string_val: "diffbot_data/prepareSubset-20170712/triples.txt"
        string_val: "diffbot_data/prepareSubset-20170712/triples.txt"
        string_val: "diffbot_data/prepareSubset-20170712/triples.txt"
        string_val: "diffbot_data/prepareSubset-20170712/triples.txt"
        string_val: "diffbot_data/prepareSubset-20170712/triples.txt"
        string_val: "diffbot_data/prepareSubset-20170712/triples.txt"
        string_val: "diffbot_data/prepareSubset-20170712/triples.txt"
        string_val: "diffbot_data/prepareSubset-20170712/triples.txt"
        string_val: "diffbot_data/prepareSubset-20170712/triples.txt"
        string_val: "diffbot_data/prepareSubset-20170712/triples.txt"
        string_val: "diffbot_data/prepareSubset-20170712/triples.txt"
        string_val: "diffbot_data/prepareSubset-20170712/triples.txt"
        string_val: "diffbot_data/prepareSubset-20170712/triples.txt"
        string_val: "diffbot_data/prepareSubset-20170712/triples.txt"
        string_val: "diffbot_data/prepareSubset-20170712/triples.txt"
        string_val: "diffbot_data/prepareSubset-20170712/triples.txt"
        string_val: "diffbot_data/prepareSubset-20170712/triples.txt"
        string_val: "diffbot_data/prepareSubset-20170712/triples.txt"
        string_val: "diffbot_data/prepareSubset-20170712/triples.txt"
        string_val: "diffbot_data/prepareSubset-20170712/triples.txt"
        string_val: "diffbot_data/prepareSubset-20170712/triples.txt"
        string_val: "diffbot_data/prepareSubset-20170712/triples.txt"
        string_val: "diffbot_data/prepareSubset-20170712/triples.txt"
        string_val: "diffbot_data/prepareSubset-20170712/triples.txt"
        string_val: "diffbot_data/prepareSubset-20170712/triples.txt"
        string_val: "diffbot_data/prepareSubset-20170712/triples.txt"
        string_val: "diffbot_data/prepareSubset-20170712/triples.txt"
        string_val: "diffbot_data/prepareSubset-20170712/triples.txt"
        string_val: "diffbot_data/prepareSubset-20170712/triples.txt"
        string_val: "diffbot_data/prepareSubset-20170712/triples.txt"
        string_val: "diffbot_data/prepareSubset-20170712/triples.txt"
        string_val: "diffbot_data/prepareSubset-20170712/triples.txt"
        string_val: "diffbot_data/prepareSubset-20170712/triples.txt"
        string_val: "diffbot_data/prepareSubset-20170712/triples.txt"
        string_val: "diffbot_data/prepareSubset-20170712/triples.txt"
        string_val: "diffbot_data/prepareSubset-20170712/triples.txt"
        string_val: "diffbot_data/prepareSubset-20170712/triples.txt"
        string_val: "diffbot_data/prepareSubset-20170712/triples.txt"
        string_val: "diffbot_data/prepareSubset-20170712/triples.txt"
        string_val: "diffbot_data/prepareSubset-20170712/triples.txt"
        string_val: "diffbot_data/prepareSubset-20170712/triples.txt"
        string_val: "diffbot_data/prepareSubset-20170712/triples.txt"
        string_val: "diffbot_data/prepareSubset-20170712/triples.txt"
        string_val: "diffbot_data/prepareSubset-20170712/triples.txt"
        string_val: "diffbot_data/prepareSubset-20170712/triples.txt"
        string_val: "diffbot_data/prepareSubset-20170712/triples.txt"
        string_val: "diffbot_data/prepareSubset-20170712/triples.txt"
        string_val: "diffbot_data/prepareSubset-20170712/triples.txt"
        string_val: "diffbot_data/prepareSubset-20170712/triples.txt"
        string_val: "diffbot_data/prepareSubset-20170712/triples.txt"
        string_val: "diffbot_data/prepareSubset-20170712/triples.txt"
        string_val: "diffbot_data/prepareSubset-20170712/triples.txt"
        string_val: "diffbot_data/prepareSubset-20170712/triples.txt"
        string_val: "diffbot_data/prepareSubset-20170712/triples.txt"
        string_val: "diffbot_data/prepareSubset-20170712/triples.txt"
        string_val: "diffbot_data/prepareSubset-20170712/triples.txt"
        string_val: "diffbot_data/prepareSubset-20170712/triples.txt"
        string_val: "diffbot_data/prepareSubset-20170712/triples.txt"
        string_val: "diffbot_data/prepareSubset-20170712/triples.txt"
        string_val: "diffbot_data/prepareSubset-20170712/triples.txt"
        string_val: "diffbot_data/prepareSubset-20170712/triples.txt"
        string_val: "diffbot_data/prepareSubset-20170712/triples.txt"
        string_val: "diffbot_data/prepareSubset-20170712/triples.txt"
        string_val: "diffbot_data/prepareSubset-20170712/triples.txt"
        string_val: "diffbot_data/prepareSubset-20170712/triples.txt"
        string_val: "diffbot_data/prepareSubset-20170712/triples.txt"
        string_val: "diffbot_data/prepareSubset-20170712/triples.txt"
        string_val: "diffbot_data/prepareSubset-20170712/triples.txt"
        string_val: "diffbot_data/prepareSubset-20170712/triples.txt"
        string_val: "diffbot_data/prepareSubset-20170712/triples.txt"
        string_val: "diffbot_data/prepareSubset-20170712/triples.txt"
        string_val: "diffbot_data/prepareSubset-20170712/triples.txt"
        string_val: "diffbot_data/prepareSubset-20170712/triples.txt"
        string_val: "diffbot_data/prepareSubset-20170712/triples.txt"
        string_val: "diffbot_data/prepareSubset-20170712/triples.txt"
        string_val: "diffbot_data/prepareSubset-20170712/triples.txt"
        string_val: "diffbot_data/prepareSubset-20170712/triples.txt"
        string_val: "diffbot_data/prepareSubset-20170712/triples.txt"
        string_val: "diffbot_data/prepareSubset-20170712/triples.txt"
        string_val: "diffbot_data/prepareSubset-20170712/triples.txt"
        string_val: "diffbot_data/prepareSubset-20170712/triples.txt"
        string_val: "diffbot_data/prepareSubset-20170712/triples.txt"
        string_val: "diffbot_data/prepareSubset-20170712/triples.txt"
        string_val: "diffbot_data/prepareSubset-20170712/triples.txt"
        string_val: "diffbot_data/prepareSubset-20170712/triples.txt"
        string_val: "diffbot_data/prepareSubset-20170712/triples.txt"
        string_val: "diffbot_data/prepareSubset-20170712/triples.txt"
        string_val: "diffbot_data/prepareSubset-20170712/triples.txt"
        string_val: "diffbot_data/prepareSubset-20170712/triples.txt"
        string_val: "diffbot_data/prepareSubset-20170712/triples.txt"
        string_val: "diffbot_data/prepareSubset-20170712/triples.txt"
        string_val: "diffbot_data/prepareSubset-20170712/triples.txt"
        string_val: "diffbot_data/prepareSubset-20170712/triples.txt"
        string_val: "diffbot_data/prepareSubset-20170712/triples.txt"
        string_val: "diffbot_data/prepareSubset-20170712/triples.txt"
        string_val: "diffbot_data/prepareSubset-20170712/triples.txt"
        string_val: "diffbot_data/prepareSubset-20170712/triples.txt"
        string_val: "diffbot_data/prepareSubset-20170712/triples.txt"
        string_val: "diffbot_data/prepareSubset-20170712/triples.txt"
        string_val: "diffbot_data/prepareSubset-20170712/triples.txt"
        string_val: "diffbot_data/prepareSubset-20170712/triples.txt"
        string_val: "diffbot_data/prepareSubset-20170712/triples.txt"
        string_val: "diffbot_data/prepareSubset-20170712/triples.txt"
        string_val: "diffbot_data/prepareSubset-20170712/triples.txt"
        string_val: "diffbot_data/prepareSubset-20170712/triples.txt"
        string_val: "diffbot_data/prepareSubset-20170712/triples.txt"
        string_val: "diffbot_data/prepareSubset-20170712/triples.txt"
        string_val: "diffbot_data/prepareSubset-20170712/triples.txt"
        string_val: "diffbot_data/prepareSubset-20170712/triples.txt"
        string_val: "diffbot_data/prepareSubset-20170712/triples.txt"
        string_val: "diffbot_data/prepareSubset-20170712/triples.txt"
        string_val: "diffbot_data/prepareSubset-20170712/triples.txt"
        string_val: "diffbot_data/prepareSubset-20170712/triples.txt"
        string_val: "diffbot_data/prepareSubset-20170712/triples.txt"
        string_val: "diffbot_data/prepareSubset-20170712/triples.txt"
        string_val: "diffbot_data/prepareSubset-20170712/triples.txt"
        string_val: "diffbot_data/prepareSubset-20170712/triples.txt"
        string_val: "diffbot_data/prepareSubset-20170712/triples.txt"
        string_val: "diffbot_data/prepareSubset-20170712/triples.txt"
        string_val: "diffbot_data/prepareSubset-20170712/triples.txt"
        string_val: "diffbot_data/prepareSubset-20170712/triples.txt"
        string_val: "diffbot_data/prepareSubset-20170712/triples.txt"
        string_val: "diffbot_data/prepareSubset-20170712/triples.txt"
        string_val: "diffbot_data/prepareSubset-20170712/triples.txt"
        string_val: "diffbot_data/prepareSubset-20170712/triples.txt"
        string_val: "diffbot_data/prepareSubset-20170712/triples.txt"
        string_val: "diffbot_data/prepareSubset-20170712/triples.txt"
        string_val: "diffbot_data/prepareSubset-20170712/triples.txt"
        string_val: "diffbot_data/prepareSubset-20170712/triples.txt"
        string_val: "diffbot_data/prepareSubset-20170712/triples.txt"
        string_val: "diffbot_data/prepareSubset-20170712/triples.txt"
        string_val: "diffbot_data/prepareSubset-20170712/triples.txt"
        string_val: "diffbot_data/prepareSubset-20170712/triples.txt"
        string_val: "diffbot_data/prepareSubset-20170712/triples.txt"
        string_val: "diffbot_data/prepareSubset-20170712/triples.txt"
        string_val: "diffbot_data/prepareSubset-20170712/triples.txt"
        string_val: "diffbot_data/prepareSubset-20170712/triples.txt"
        string_val: "diffbot_data/prepareSubset-20170712/triples.txt"
        string_val: "diffbot_data/prepareSubset-20170712/triples.txt"
        string_val: "diffbot_data/prepareSubset-20170712/triples.txt"
        string_val: "diffbot_data/prepareSubset-20170712/triples.txt"
        string_val: "diffbot_data/prepareSubset-20170712/triples.txt"
        string_val: "diffbot_data/prepareSubset-20170712/triples.txt"
        string_val: "diffbot_data/prepareSubset-20170712/triples.txt"
        string_val: "diffbot_data/prepareSubset-20170712/triples.txt"
        string_val: "diffbot_data/prepareSubset-20170712/triples.txt"
        string_val: "diffbot_data/prepareSubset-20170712/triples.txt"
        string_val: "diffbot_data/prepareSubset-20170712/triples.txt"
        string_val: "diffbot_data/prepareSubset-20170712/triples.txt"
        string_val: "diffbot_data/prepareSubset-20170712/triples.txt"
        string_val: "diffbot_data/prepareSubset-20170712/triples.txt"
        string_val: "diffbot_data/prepareSubset-20170712/triples.txt"
        string_val: "diffbot_data/prepareSubset-20170712/triples.txt"
        string_val: "diffbot_data/prepareSubset-20170712/triples.txt"
        string_val: "diffbot_data/prepareSubset-20170712/triples.txt"
        string_val: "diffbot_data/prepareSubset-20170712/triples.txt"
        string_val: "diffbot_data/prepareSubset-20170712/triples.txt"
        string_val: "diffbot_data/prepareSubset-20170712/triples.txt"
        string_val: "diffbot_data/prepareSubset-20170712/triples.txt"
        string_val: "diffbot_data/prepareSubset-20170712/triples.txt"
        string_val: "diffbot_data/prepareSubset-20170712/triples.txt"
        string_val: "diffbot_data/prepareSubset-20170712/triples.txt"
        string_val: "diffbot_data/prepareSubset-20170712/triples.txt"
        string_val: "diffbot_data/prepareSubset-20170712/triples.txt"
        string_val: "diffbot_data/prepareSubset-20170712/triples.txt"
        string_val: "diffbot_data/prepareSubset-20170712/triples.txt"
        string_val: "diffbot_data/prepareSubset-20170712/triples.txt"
        string_val: "diffbot_data/prepareSubset-20170712/triples.txt"
        string_val: "diffbot_data/prepareSubset-20170712/triples.txt"
        string_val: "diffbot_data/prepareSubset-20170712/triples.txt"
        string_val: "diffbot_data/prepareSubset-20170712/triples.txt"
        string_val: "diffbot_data/prepareSubset-20170712/triples.txt"
        string_val: "diffbot_data/prepareSubset-20170712/triples.txt"
        string_val: "diffbot_data/prepareSubset-20170712/triples.txt"
        string_val: "diffbot_data/prepareSubset-20170712/triples.txt"
        string_val: "diffbot_data/prepareSubset-20170712/triples.txt"
        string_val: "diffbot_data/prepareSubset-20170712/triples.txt"
        string_val: "diffbot_data/prepareSubset-20170712/triples.txt"
        string_val: "diffbot_data/prepareSubset-20170712/triples.txt"
        string_val: "diffbot_data/prepareSubset-20170712/triples.txt"
        string_val: "diffbot_data/prepareSubset-20170712/triples.txt"
        string_val: "diffbot_data/prepareSubset-20170712/triples.txt"
        string_val: "diffbot_data/prepareSubset-20170712/triples.txt"
        string_val: "diffbot_data/prepareSubset-20170712/triples.txt"
        string_val: "diffbot_data/prepareSubset-20170712/triples.txt"
        string_val: "diffbot_data/prepareSubset-20170712/triples.txt"
        string_val: "diffbot_data/prepareSubset-20170712/triples.txt"
        string_val: "diffbot_data/prepareSubset-20170712/triples.txt"
        string_val: "diffbot_data/prepareSubset-20170712/triples.txt"
        string_val: "diffbot_data/prepareSubset-20170712/triples.txt"
        string_val: "diffbot_data/prepareSubset-20170712/triples.txt"
        string_val: "diffbot_data/prepareSubset-20170712/triples.txt"
        string_val: "diffbot_data/prepareSubset-20170712/triples.txt"
        string_val: "diffbot_data/prepareSubset-20170712/triples.txt"
        string_val: "diffbot_data/prepareSubset-20170712/triples.txt"
        string_val: "diffbot_data/prepareSubset-20170712/triples.txt"
        string_val: "diffbot_data/prepareSubset-20170712/triples.txt"
        string_val: "diffbot_data/prepareSubset-20170712/triples.txt"
        string_val: "diffbot_data/prepareSubset-20170712/triples.txt"
        string_val: "diffbot_data/prepareSubset-20170712/triples.txt"
        string_val: "diffbot_data/prepareSubset-20170712/triples.txt"
        string_val: "diffbot_data/prepareSubset-20170712/triples.txt"
        string_val: "diffbot_data/prepareSubset-20170712/triples.txt"
        string_val: "diffbot_data/prepareSubset-20170712/triples.txt"
        string_val: "diffbot_data/prepareSubset-20170712/triples.txt"
        string_val: "diffbot_data/prepareSubset-20170712/triples.txt"
        string_val: "diffbot_data/prepareSubset-20170712/triples.txt"
        string_val: "diffbot_data/prepareSubset-20170712/triples.txt"
        string_val: "diffbot_data/prepareSubset-20170712/triples.txt"
        string_val: "diffbot_data/prepareSubset-20170712/triples.txt"
        string_val: "diffbot_data/prepareSubset-20170712/triples.txt"
        string_val: "diffbot_data/prepareSubset-20170712/triples.txt"
        string_val: "diffbot_data/prepareSubset-20170712/triples.txt"
        string_val: "diffbot_data/prepareSubset-20170712/triples.txt"
        string_val: "diffbot_data/prepareSubset-20170712/triples.txt"
        string_val: "diffbot_data/prepareSubset-20170712/triples.txt"
        string_val: "diffbot_data/prepareSubset-20170712/triples.txt"
        string_val: "diffbot_data/prepareSubset-20170712/triples.txt"
        string_val: "diffbot_data/prepareSubset-20170712/triples.txt"
        string_val: "diffbot_data/prepareSubset-20170712/triples.txt"
        string_val: "diffbot_data/prepareSubset-20170712/triples.txt"
        string_val: "diffbot_data/prepareSubset-20170712/triples.txt"
        string_val: "diffbot_data/prepareSubset-20170712/triples.txt"
        string_val: "diffbot_data/prepareSubset-20170712/triples.txt"
        string_val: "diffbot_data/prepareSubset-20170712/triples.txt"
        string_val: "diffbot_data/prepareSubset-20170712/triples.txt"
        string_val: "diffbot_data/prepareSubset-20170712/triples.txt"
        string_val: "diffbot_data/prepareSubset-20170712/triples.txt"
        string_val: "diffbot_data/prepareSubset-20170712/triples.txt"
        string_val: "diffbot_data/prepareSubset-20170712/triples.txt"
        string_val: "diffbot_data/prepareSubset-20170712/triples.txt"
        string_val: "diffbot_data/prepareSubset-20170712/triples.txt"
        string_val: "diffbot_data/prepareSubset-20170712/triples.txt"
        string_val: "diffbot_data/prepareSubset-20170712/triples.txt"
        string_val: "diffbot_data/prepareSubset-20170712/triples.txt"
        string_val: "diffbot_data/prepareSubset-20170712/triples.txt"
        string_val: "diffbot_data/prepareSubset-20170712/triples.txt"
        string_val: "diffbot_data/prepareSubset-20170712/triples.txt"
        string_val: "diffbot_data/prepareSubset-20170712/triples.txt"
        string_val: "diffbot_data/prepareSubset-20170712/triples.txt"
        string_val: "diffbot_data/prepareSubset-20170712/triples.txt"
        string_val: "diffbot_data/prepareSubset-20170712/triples.txt"
        string_val: "diffbot_data/prepareSubset-20170712/triples.txt"
        string_val: "diffbot_data/prepareSubset-20170712/triples.txt"
        string_val: "diffbot_data/prepareSubset-20170712/triples.txt"
        string_val: "diffbot_data/prepareSubset-20170712/triples.txt"
        string_val: "diffbot_data/prepareSubset-20170712/triples.txt"
        string_val: "diffbot_data/prepareSubset-20170712/triples.txt"
        string_val: "diffbot_data/prepareSubset-20170712/triples.txt"
        string_val: "diffbot_data/prepareSubset-20170712/triples.txt"
        string_val: "diffbot_data/prepareSubset-20170712/triples.txt"
        string_val: "diffbot_data/prepareSubset-20170712/triples.txt"
        string_val: "diffbot_data/prepareSubset-20170712/triples.txt"
        string_val: "diffbot_data/prepareSubset-20170712/triples.txt"
        string_val: "diffbot_data/prepareSubset-20170712/triples.txt"
        string_val: "diffbot_data/prepareSubset-20170712/triples.txt"
        string_val: "diffbot_data/prepareSubset-20170712/triples.txt"
        string_val: "diffbot_data/prepareSubset-20170712/triples.txt"
        string_val: "diffbot_data/prepareSubset-20170712/triples.txt"
        string_val: "diffbot_data/prepareSubset-20170712/triples.txt"
        string_val: "diffbot_data/prepareSubset-20170712/triples.txt"
        string_val: "diffbot_data/prepareSubset-20170712/triples.txt"
        string_val: "diffbot_data/prepareSubset-20170712/triples.txt"
        string_val: "diffbot_data/prepareSubset-20170712/triples.txt"
        string_val: "diffbot_data/prepareSubset-20170712/triples.txt"
        string_val: "diffbot_data/prepareSubset-20170712/triples.txt"
        string_val: "diffbot_data/prepareSubset-20170712/triples.txt"
        string_val: "diffbot_data/prepareSubset-20170712/triples.txt"
        string_val: "diffbot_data/prepareSubset-20170712/triples.txt"
        string_val: "diffbot_data/prepareSubset-20170712/triples.txt"
        string_val: "diffbot_data/prepareSubset-20170712/triples.txt"
        string_val: "diffbot_data/prepareSubset-20170712/triples.txt"
        string_val: "diffbot_data/prepareSubset-20170712/triples.txt"
        string_val: "diffbot_data/prepareSubset-20170712/triples.txt"
        string_val: "diffbot_data/prepareSubset-20170712/triples.txt"
        string_val: "diffbot_data/prepareSubset-20170712/triples.txt"
        string_val: "diffbot_data/prepareSubset-20170712/triples.txt"
        string_val: "diffbot_data/prepareSubset-20170712/triples.txt"
        string_val: "diffbot_data/prepareSubset-20170712/triples.txt"
        string_val: "diffbot_data/prepareSubset-20170712/triples.txt"
        string_val: "diffbot_data/prepareSubset-20170712/triples.txt"
        string_val: "diffbot_data/prepareSubset-20170712/triples.txt"
        string_val: "diffbot_data/prepareSubset-20170712/triples.txt"
        string_val: "diffbot_data/prepareSubset-20170712/triples.txt"
        string_val: "diffbot_data/prepareSubset-20170712/triples.txt"
        string_val: "diffbot_data/prepareSubset-20170712/triples.txt"
        string_val: "diffbot_data/prepareSubset-20170712/triples.txt"
        string_val: "diffbot_data/prepareSubset-20170712/triples.txt"
        string_val: "diffbot_data/prepareSubset-20170712/triples.txt"
        string_val: "diffbot_data/prepareSubset-20170712/triples.txt"
        string_val: "diffbot_data/prepareSubset-20170712/triples.txt"
        string_val: "diffbot_data/prepareSubset-20170712/triples.txt"
        string_val: "diffbot_data/prepareSubset-20170712/triples.txt"
        string_val: "diffbot_data/prepareSubset-20170712/triples.txt"
        string_val: "diffbot_data/prepareSubset-20170712/triples.txt"
        string_val: "diffbot_data/prepareSubset-20170712/triples.txt"
        string_val: "diffbot_data/prepareSubset-20170712/triples.txt"
        string_val: "diffbot_data/prepareSubset-20170712/triples.txt"
        string_val: "diffbot_data/prepareSubset-20170712/triples.txt"
        string_val: "diffbot_data/prepareSubset-20170712/triples.txt"
        string_val: "diffbot_data/prepareSubset-20170712/triples.txt"
        string_val: "diffbot_data/prepareSubset-20170712/triples.txt"
        string_val: "diffbot_data/prepareSubset-20170712/triples.txt"
        string_val: "diffbot_data/prepareSubset-20170712/triples.txt"
        string_val: "diffbot_data/prepareSubset-20170712/triples.txt"
        string_val: "diffbot_data/prepareSubset-20170712/triples.txt"
        string_val: "diffbot_data/prepareSubset-20170712/triples.txt"
        string_val: "diffbot_data/prepareSubset-20170712/triples.txt"
        string_val: "diffbot_data/prepareSubset-20170712/triples.txt"
        string_val: "diffbot_data/prepareSubset-20170712/triples.txt"
        string_val: "diffbot_data/prepareSubset-20170712/triples.txt"
        string_val: "diffbot_data/prepareSubset-20170712/triples.txt"
        string_val: "diffbot_data/prepareSubset-20170712/triples.txt"
        string_val: "diffbot_data/prepareSubset-20170712/triples.txt"
        string_val: "diffbot_data/prepareSubset-20170712/triples.txt"
        string_val: "diffbot_data/prepareSubset-20170712/triples.txt"
        string_val: "diffbot_data/prepareSubset-20170712/triples.txt"
        string_val: "diffbot_data/prepareSubset-20170712/triples.txt"
        string_val: "diffbot_data/prepareSubset-20170712/triples.txt"
        string_val: "diffbot_data/prepareSubset-20170712/triples.txt"
        string_val: "diffbot_data/prepareSubset-20170712/triples.txt"
        string_val: "diffbot_data/prepareSubset-20170712/triples.txt"
        string_val: "diffbot_data/prepareSubset-20170712/triples.txt"
        string_val: "diffbot_data/prepareSubset-20170712/triples.txt"
        string_val: "diffbot_data/prepareSubset-20170712/triples.txt"
        string_val: "diffbot_data/prepareSubset-20170712/triples.txt"
        string_val: "diffbot_data/prepareSubset-20170712/triples.txt"
        string_val: "diffbot_data/prepareSubset-20170712/triples.txt"
        string_val: "diffbot_data/prepareSubset-20170712/triples.txt"
        string_val: "diffbot_data/prepareSubset-20170712/triples.txt"
        string_val: "diffbot_data/prepareSubset-20170712/triples.txt"
        string_val: "diffbot_data/prepareSubset-20170712/triples.txt"
        string_val: "diffbot_data/prepareSubset-20170712/triples.txt"
        string_val: "diffbot_data/prepareSubset-20170712/triples.txt"
        string_val: "diffbot_data/prepareSubset-20170712/triples.txt"
        string_val: "diffbot_data/prepareSubset-20170712/triples.txt"
        string_val: "diffbot_data/prepareSubset-20170712/triples.txt"
        string_val: "diffbot_data/prepareSubset-20170712/triples.txt"
        string_val: "diffbot_data/prepareSubset-20170712/triples.txt"
        string_val: "diffbot_data/prepareSubset-20170712/triples.txt"
        string_val: "diffbot_data/prepareSubset-20170712/triples.txt"
        string_val: "diffbot_data/prepareSubset-20170712/triples.txt"
        string_val: "diffbot_data/prepareSubset-20170712/triples.txt"
        string_val: "diffbot_data/prepareSubset-20170712/triples.txt"
        string_val: "diffbot_data/prepareSubset-20170712/triples.txt"
        string_val: "diffbot_data/prepareSubset-20170712/triples.txt"
        string_val: "diffbot_data/prepareSubset-20170712/triples.txt"
        string_val: "diffbot_data/prepareSubset-20170712/triples.txt"
        string_val: "diffbot_data/prepareSubset-20170712/triples.txt"
        string_val: "diffbot_data/prepareSubset-20170712/triples.txt"
        string_val: "diffbot_data/prepareSubset-20170712/triples.txt"
        string_val: "diffbot_data/prepareSubset-20170712/triples.txt"
        string_val: "diffbot_data/prepareSubset-20170712/triples.txt"
        string_val: "diffbot_data/prepareSubset-20170712/triples.txt"
        string_val: "diffbot_data/prepareSubset-20170712/triples.txt"
        string_val: "diffbot_data/prepareSubset-20170712/triples.txt"
        string_val: "diffbot_data/prepareSubset-20170712/triples.txt"
        string_val: "diffbot_data/prepareSubset-20170712/triples.txt"
        string_val: "diffbot_data/prepareSubset-20170712/triples.txt"
        string_val: "diffbot_data/prepareSubset-20170712/triples.txt"
        string_val: "diffbot_data/prepareSubset-20170712/triples.txt"
        string_val: "diffbot_data/prepareSubset-20170712/triples.txt"
        string_val: "diffbot_data/prepareSubset-20170712/triples.txt"
        string_val: "diffbot_data/prepareSubset-20170712/triples.txt"
        string_val: "diffbot_data/prepareSubset-20170712/triples.txt"
        string_val: "diffbot_data/prepareSubset-20170712/triples.txt"
        string_val: "diffbot_data/prepareSubset-20170712/triples.txt"
        string_val: "diffbot_data/prepareSubset-20170712/triples.txt"
        string_val: "diffbot_data/prepareSubset-20170712/triples.txt"
        string_val: "diffbot_data/prepareSubset-20170712/triples.txt"
        string_val: "diffbot_data/prepareSubset-20170712/triples.txt"
        string_val: "diffbot_data/prepareSubset-20170712/triples.txt"
        string_val: "diffbot_data/prepareSubset-20170712/triples.txt"
        string_val: "diffbot_data/prepareSubset-20170712/triples.txt"
        string_val: "diffbot_data/prepareSubset-20170712/triples.txt"
        string_val: "diffbot_data/prepareSubset-20170712/triples.txt"
        string_val: "diffbot_data/prepareSubset-20170712/triples.txt"
        string_val: "diffbot_data/prepareSubset-20170712/triples.txt"
        string_val: "diffbot_data/prepareSubset-20170712/triples.txt"
        string_val: "diffbot_data/prepareSubset-20170712/triples.txt"
        string_val: "diffbot_data/prepareSubset-20170712/triples.txt"
        string_val: "diffbot_data/prepareSubset-20170712/triples.txt"
        string_val: "diffbot_data/prepareSubset-20170712/triples.txt"
        string_val: "diffbot_data/prepareSubset-20170712/triples.txt"
        string_val: "diffbot_data/prepareSubset-20170712/triples.txt"
        string_val: "diffbot_data/prepareSubset-20170712/triples.txt"
        string_val: "diffbot_data/prepareSubset-20170712/triples.txt"
        string_val: "diffbot_data/prepareSubset-20170712/triples.txt"
        string_val: "diffbot_data/prepareSubset-20170712/triples.txt"
        string_val: "diffbot_data/prepareSubset-20170712/triples.txt"
        string_val: "diffbot_data/prepareSubset-20170712/triples.txt"
        string_val: "diffbot_data/prepareSubset-20170712/triples.txt"
        string_val: "diffbot_data/prepareSubset-20170712/triples.txt"
        string_val: "diffbot_data/prepareSubset-20170712/triples.txt"
        string_val: "diffbot_data/prepareSubset-20170712/triples.txt"
        string_val: "diffbot_data/prepareSubset-20170712/triples.txt"
        string_val: "diffbot_data/prepareSubset-20170712/triples.txt"
        string_val: "diffbot_data/prepareSubset-20170712/triples.txt"
        string_val: "diffbot_data/prepareSubset-20170712/triples.txt"
        string_val: "diffbot_data/prepareSubset-20170712/triples.txt"
        string_val: "diffbot_data/prepareSubset-20170712/triples.txt"
        string_val: "diffbot_data/prepareSubset-20170712/triples.txt"
        string_val: "diffbot_data/prepareSubset-20170712/triples.txt"
        string_val: "diffbot_data/prepareSubset-20170712/triples.txt"
        string_val: "diffbot_data/prepareSubset-20170712/triples.txt"
        string_val: "diffbot_data/prepareSubset-20170712/triples.txt"
        string_val: "diffbot_data/prepareSubset-20170712/triples.txt"
        string_val: "diffbot_data/prepareSubset-20170712/triples.txt"
        string_val: "diffbot_data/prepareSubset-20170712/triples.txt"
        string_val: "diffbot_data/prepareSubset-20170712/triples.txt"
        string_val: "diffbot_data/prepareSubset-20170712/triples.txt"
        string_val: "diffbot_data/prepareSubset-20170712/triples.txt"
        string_val: "diffbot_data/prepareSubset-20170712/triples.txt"
        string_val: "diffbot_data/prepareSubset-20170712/triples.txt"
        string_val: "diffbot_data/prepareSubset-20170712/triples.txt"
        string_val: "diffbot_data/prepareSubset-20170712/triples.txt"
        string_val: "diffbot_data/prepareSubset-20170712/triples.txt"
        string_val: "diffbot_data/prepareSubset-20170712/triples.txt"
        string_val: "diffbot_data/prepareSubset-20170712/triples.txt"
        string_val: "diffbot_data/prepareSubset-20170712/triples.txt"
        string_val: "diffbot_data/prepareSubset-20170712/triples.txt"
        string_val: "diffbot_data/prepareSubset-20170712/triples.txt"
        string_val: "diffbot_data/prepareSubset-20170712/triples.txt"
        string_val: "diffbot_data/prepareSubset-20170712/triples.txt"
        string_val: "diffbot_data/prepareSubset-20170712/triples.txt"
        string_val: "diffbot_data/prepareSubset-20170712/triples.txt"
        string_val: "diffbot_data/prepareSubset-20170712/triples.txt"
        string_val: "diffbot_data/prepareSubset-20170712/triples.txt"
        string_val: "diffbot_data/prepareSubset-20170712/triples.txt"
        string_val: "diffbot_data/prepareSubset-20170712/triples.txt"
        string_val: "diffbot_data/prepareSubset-20170712/triples.txt"
        string_val: "diffbot_data/prepareSubset-20170712/triples.txt"
        string_val: "diffbot_data/prepareSubset-20170712/triples.txt"
        string_val: "diffbot_data/prepareSubset-20170712/triples.txt"
        string_val: "diffbot_data/prepareSubset-20170712/triples.txt"
        string_val: "diffbot_data/prepareSubset-20170712/triples.txt"
        string_val: "diffbot_data/prepareSubset-20170712/triples.txt"
        string_val: "diffbot_data/prepareSubset-20170712/triples.txt"
        string_val: "diffbot_data/prepareSubset-20170712/triples.txt"
        string_val: "diffbot_data/prepareSubset-20170712/triples.txt"
        string_val: "diffbot_data/prepareSubset-20170712/triples.txt"
        string_val: "diffbot_data/prepareSubset-20170712/triples.txt"
        string_val: "diffbot_data/prepareSubset-20170712/triples.txt"
        string_val: "diffbot_data/prepareSubset-20170712/triples.txt"
        string_val: "diffbot_data/prepareSubset-20170712/triples.txt"
        string_val: "diffbot_data/prepareSubset-20170712/triples.txt"
        string_val: "diffbot_data/prepareSubset-20170712/triples.txt"
        string_val: "diffbot_data/prepareSubset-20170712/triples.txt"
        string_val: "diffbot_data/prepareSubset-20170712/triples.txt"
        string_val: "diffbot_data/prepareSubset-20170712/triples.txt"
        string_val: "diffbot_data/prepareSubset-20170712/triples.txt"
        string_val: "diffbot_data/prepareSubset-20170712/triples.txt"
        string_val: "diffbot_data/prepareSubset-20170712/triples.txt"
        string_val: "diffbot_data/prepareSubset-20170712/triples.txt"
        string_val: "diffbot_data/prepareSubset-20170712/triples.txt"
        string_val: "diffbot_data/prepareSubset-20170712/triples.txt"
        string_val: "diffbot_data/prepareSubset-20170712/triples.txt"
        string_val: "diffbot_data/prepareSubset-20170712/triples.txt"
        string_val: "diffbot_data/prepareSubset-20170712/triples.txt"
        string_val: "diffbot_data/prepareSubset-20170712/triples.txt"
        string_val: "diffbot_data/prepareSubset-20170712/triples.txt"
        string_val: "diffbot_data/prepareSubset-20170712/triples.txt"
        string_val: "diffbot_data/prepareSubset-20170712/triples.txt"
        string_val: "diffbot_data/prepareSubset-20170712/triples.txt"
        string_val: "diffbot_data/prepareSubset-20170712/triples.txt"
        string_val: "diffbot_data/prepareSubset-20170712/triples.txt"
        string_val: "diffbot_data/prepareSubset-20170712/triples.txt"
        string_val: "diffbot_data/prepareSubset-20170712/triples.txt"
        string_val: "diffbot_data/prepareSubset-20170712/triples.txt"
        string_val: "diffbot_data/prepareSubset-20170712/triples.txt"
        string_val: "diffbot_data/prepareSubset-20170712/triples.txt"
        string_val: "diffbot_data/prepareSubset-20170712/triples.txt"
        string_val: "diffbot_data/prepareSubset-20170712/triples.txt"
        string_val: "diffbot_data/prepareSubset-20170712/triples.txt"
        string_val: "diffbot_data/prepareSubset-20170712/triples.txt"
        string_val: "diffbot_data/prepareSubset-20170712/triples.txt"
        string_val: "diffbot_data/prepareSubset-20170712/triples.txt"
        string_val: "diffbot_data/prepareSubset-20170712/triples.txt"
        string_val: "diffbot_data/prepareSubset-20170712/triples.txt"
        string_val: "diffbot_data/prepareSubset-20170712/triples.txt"
        string_val: "diffbot_data/prepareSubset-20170712/triples.txt"
        string_val: "diffbot_data/prepareSubset-20170712/triples.txt"
        string_val: "diffbot_data/prepareSubset-20170712/triples.txt"
        string_val: "diffbot_data/prepareSubset-20170712/triples.txt"
        string_val: "diffbot_data/prepareSubset-20170712/triples.txt"
        string_val: "diffbot_data/prepareSubset-20170712/triples.txt"
        string_val: "diffbot_data/prepareSubset-20170712/triples.txt"
        string_val: "diffbot_data/prepareSubset-20170712/triples.txt"
        string_val: "diffbot_data/prepareSubset-20170712/triples.txt"
        string_val: "diffbot_data/prepareSubset-20170712/triples.txt"
        string_val: "diffbot_data/prepareSubset-20170712/triples.txt"
        string_val: "diffbot_data/prepareSubset-20170712/triples.txt"
        string_val: "diffbot_data/prepareSubset-20170712/triples.txt"
        string_val: "diffbot_data/prepareSubset-20170712/triples.txt"
        string_val: "diffbot_data/prepareSubset-20170712/triples.txt"
        string_val: "diffbot_data/prepareSubset-20170712/triples.txt"
        string_val: "diffbot_data/prepareSubset-20170712/triples.txt"
        string_val: "diffbot_data/prepareSubset-20170712/triples.txt"
        string_val: "diffbot_data/prepareSubset-20170712/triples.txt"
        string_val: "diffbot_data/prepareSubset-20170712/triples.txt"
        string_val: "diffbot_data/prepareSubset-20170712/triples.txt"
        string_val: "diffbot_data/prepareSubset-20170712/triples.txt"
        string_val: "diffbot_data/prepareSubset-20170712/triples.txt"
        string_val: "diffbot_data/prepareSubset-20170712/triples.txt"
        string_val: "diffbot_data/prepareSubset-20170712/triples.txt"
        string_val: "diffbot_data/prepareSubset-20170712/triples.txt"
        string_val: "diffbot_data/prepareSubset-20170712/triples.txt"
        string_val: "diffbot_data/prepareSubset-20170712/triples.txt"
        string_val: "diffbot_data/prepareSubset-20170712/triples.txt"
        string_val: "diffbot_data/prepareSubset-20170712/triples.txt"
        string_val: "diffbot_data/prepareSubset-20170712/triples.txt"
        string_val: "diffbot_data/prepareSubset-20170712/triples.txt"
        string_val: "diffbot_data/prepareSubset-20170712/triples.txt"
        string_val: "diffbot_data/prepareSubset-20170712/triples.txt"
        string_val: "diffbot_data/prepareSubset-20170712/triples.txt"
        string_val: "diffbot_data/prepareSubset-20170712/triples.txt"
        string_val: "diffbot_data/prepareSubset-20170712/triples.txt"
        string_val: "diffbot_data/prepareSubset-20170712/triples.txt"
        string_val: "diffbot_data/prepareSubset-20170712/triples.txt"
        string_val: "diffbot_data/prepareSubset-20170712/triples.txt"
        string_val: "diffbot_data/prepareSubset-20170712/triples.txt"
        string_val: "diffbot_data/prepareSubset-20170712/triples.txt"
        string_val: "diffbot_data/prepareSubset-20170712/triples.txt"
        string_val: "diffbot_data/prepareSubset-20170712/triples.txt"
        string_val: "diffbot_data/prepareSubset-20170712/triples.txt"
        string_val: "diffbot_data/prepareSubset-20170712/triples.txt"
        string_val: "diffbot_data/prepareSubset-20170712/triples.txt"
        string_val: "diffbot_data/prepareSubset-20170712/triples.txt"
        string_val: "diffbot_data/prepareSubset-20170712/triples.txt"
        string_val: "diffbot_data/prepareSubset-20170712/triples.txt"
        string_val: "diffbot_data/prepareSubset-20170712/triples.txt"
        string_val: "diffbot_data/prepareSubset-20170712/triples.txt"
        string_val: "diffbot_data/prepareSubset-20170712/triples.txt"
        string_val: "diffbot_data/prepareSubset-20170712/triples.txt"
        string_val: "diffbot_data/prepareSubset-20170712/triples.txt"
        string_val: "diffbot_data/prepareSubset-20170712/triples.txt"
        string_val: "diffbot_data/prepareSubset-20170712/triples.txt"
        string_val: "diffbot_data/prepareSubset-20170712/triples.txt"
        string_val: "diffbot_data/prepareSubset-20170712/triples.txt"
        string_val: "diffbot_data/prepareSubset-20170712/triples.txt"
        string_val: "diffbot_data/prepareSubset-20170712/triples.txt"
        string_val: "diffbot_data/prepareSubset-20170712/triples.txt"
        string_val: "diffbot_data/prepareSubset-20170712/triples.txt"
        string_val: "diffbot_data/prepareSubset-20170712/triples.txt"
        string_val: "diffbot_data/prepareSubset-20170712/triples.txt"
        string_val: "diffbot_data/prepareSubset-20170712/triples.txt"
        string_val: "diffbot_data/prepareSubset-20170712/triples.txt"
        string_val: "diffbot_data/prepareSubset-20170712/triples.txt"
        string_val: "diffbot_data/prepareSubset-20170712/triples.txt"
        string_val: "diffbot_data/prepareSubset-20170712/triples.txt"
        string_val: "diffbot_data/prepareSubset-20170712/triples.txt"
        string_val: "diffbot_data/prepareSubset-20170712/triples.txt"
        string_val: "diffbot_data/prepareSubset-20170712/triples.txt"
        string_val: "diffbot_data/prepareSubset-20170712/triples.txt"
        string_val: "diffbot_data/prepareSubset-20170712/triples.txt"
        string_val: "diffbot_data/prepareSubset-20170712/triples.txt"
        string_val: "diffbot_data/prepareSubset-20170712/triples.txt"
        string_val: "diffbot_data/prepareSubset-20170712/triples.txt"
        string_val: "diffbot_data/prepareSubset-20170712/triples.txt"
        string_val: "diffbot_data/prepareSubset-20170712/triples.txt"
        string_val: "diffbot_data/prepareSubset-20170712/triples.txt"
        string_val: "diffbot_data/prepareSubset-20170712/triples.txt"
        string_val: "diffbot_data/prepareSubset-20170712/triples.txt"
        string_val: "diffbot_data/prepareSubset-20170712/triples.txt"
        string_val: "diffbot_data/prepareSubset-20170712/triples.txt"
        string_val: "diffbot_data/prepareSubset-20170712/triples.txt"
        string_val: "diffbot_data/prepareSubset-20170712/triples.txt"
        string_val: "diffbot_data/prepareSubset-20170712/triples.txt"
        string_val: "diffbot_data/prepareSubset-20170712/triples.txt"
        string_val: "diffbot_data/prepareSubset-20170712/triples.txt"
        string_val: "diffbot_data/prepareSubset-20170712/triples.txt"
        string_val: "diffbot_data/prepareSubset-20170712/triples.txt"
        string_val: "diffbot_data/prepareSubset-20170712/triples.txt"
        string_val: "diffbot_data/prepareSubset-20170712/triples.txt"
        string_val: "diffbot_data/prepareSubset-20170712/triples.txt"
        string_val: "diffbot_data/prepareSubset-20170712/triples.txt"
        string_val: "diffbot_data/prepareSubset-20170712/triples.txt"
        string_val: "diffbot_data/prepareSubset-20170712/triples.txt"
        string_val: "diffbot_data/prepareSubset-20170712/triples.txt"
        string_val: "diffbot_data/prepareSubset-20170712/triples.txt"
        string_val: "diffbot_data/prepareSubset-20170712/triples.txt"
        string_val: "diffbot_data/prepareSubset-20170712/triples.txt"
        string_val: "diffbot_data/prepareSubset-20170712/triples.txt"
        string_val: "diffbot_data/prepareSubset-20170712/triples.txt"
        string_val: "diffbot_data/prepareSubset-20170712/triples.txt"
        string_val: "diffbot_data/prepareSubset-20170712/triples.txt"
        string_val: "diffbot_data/prepareSubset-20170712/triples.txt"
        string_val: "diffbot_data/prepareSubset-20170712/triples.txt"
        string_val: "diffbot_data/prepareSubset-20170712/triples.txt"
        string_val: "diffbot_data/prepareSubset-20170712/triples.txt"
        string_val: "diffbot_data/prepareSubset-20170712/triples.txt"
        string_val: "diffbot_data/prepareSubset-20170712/triples.txt"
        string_val: "diffbot_data/prepareSubset-20170712/triples.txt"
        string_val: "diffbot_data/prepareSubset-20170712/triples.txt"
        string_val: "diffbot_data/prepareSubset-20170712/triples.txt"
        string_val: "diffbot_data/prepareSubset-20170712/triples.txt"
        string_val: "diffbot_data/prepareSubset-20170712/triples.txt"
        string_val: "diffbot_data/prepareSubset-20170712/triples.txt"
        string_val: "diffbot_data/prepareSubset-20170712/triples.txt"
        string_val: "diffbot_data/prepareSubset-20170712/triples.txt"
        string_val: "diffbot_data/prepareSubset-20170712/triples.txt"
        string_val: "diffbot_data/prepareSubset-20170712/triples.txt"
        string_val: "diffbot_data/prepareSubset-20170712/triples.txt"
        string_val: "diffbot_data/prepareSubset-20170712/triples.txt"
        string_val: "diffbot_data/prepareSubset-20170712/triples.txt"
        string_val: "diffbot_data/prepareSubset-20170712/triples.txt"
        string_val: "diffbot_data/prepareSubset-20170712/triples.txt"
        string_val: "diffbot_data/prepareSubset-20170712/triples.txt"
        string_val: "diffbot_data/prepareSubset-20170712/triples.txt"
        string_val: "diffbot_data/prepareSubset-20170712/triples.txt"
        string_val: "diffbot_data/prepareSubset-20170712/triples.txt"
        string_val: "diffbot_data/prepareSubset-20170712/triples.txt"
        string_val: "diffbot_data/prepareSubset-20170712/triples.txt"
        string_val: "diffbot_data/prepareSubset-20170712/triples.txt"
        string_val: "diffbot_data/prepareSubset-20170712/triples.txt"
        string_val: "diffbot_data/prepareSubset-20170712/triples.txt"
        string_val: "diffbot_data/prepareSubset-20170712/triples.txt"
        string_val: "diffbot_data/prepareSubset-20170712/triples.txt"
        string_val: "diffbot_data/prepareSubset-20170712/triples.txt"
        string_val: "diffbot_data/prepareSubset-20170712/triples.txt"
        string_val: "diffbot_data/prepareSubset-20170712/triples.txt"
        string_val: "diffbot_data/prepareSubset-20170712/triples.txt"
        string_val: "diffbot_data/prepareSubset-20170712/triples.txt"
        string_val: "diffbot_data/prepareSubset-20170712/triples.txt"
        string_val: "diffbot_data/prepareSubset-20170712/triples.txt"
        string_val: "diffbot_data/prepareSubset-20170712/triples.txt"
        string_val: "diffbot_data/prepareSubset-20170712/triples.txt"
        string_val: "diffbot_data/prepareSubset-20170712/triples.txt"
        string_val: "diffbot_data/prepareSubset-20170712/triples.txt"
        string_val: "diffbot_data/prepareSubset-20170712/triples.txt"
        string_val: "diffbot_data/prepareSubset-20170712/triples.txt"
        string_val: "diffbot_data/prepareSubset-20170712/triples.txt"
        string_val: "diffbot_data/prepareSubset-20170712/triples.txt"
        string_val: "diffbot_data/prepareSubset-20170712/triples.txt"
        string_val: "diffbot_data/prepareSubset-20170712/triples.txt"
        string_val: "diffbot_data/prepareSubset-20170712/triples.txt"
        string_val: "diffbot_data/prepareSubset-20170712/triples.txt"
        string_val: "diffbot_data/prepareSubset-20170712/triples.txt"
        string_val: "diffbot_data/prepareSubset-20170712/triples.txt"
        string_val: "diffbot_data/prepareSubset-20170712/triples.txt"
        string_val: "diffbot_data/prepareSubset-20170712/triples.txt"
        string_val: "diffbot_data/prepareSubset-20170712/triples.txt"
        string_val: "diffbot_data/prepareSubset-20170712/triples.txt"
        string_val: "diffbot_data/prepareSubset-20170712/triples.txt"
        string_val: "diffbot_data/prepareSubset-20170712/triples.txt"
        string_val: "diffbot_data/prepareSubset-20170712/triples.txt"
        string_val: "diffbot_data/prepareSubset-20170712/triples.txt"
        string_val: "diffbot_data/prepareSubset-20170712/triples.txt"
        string_val: "diffbot_data/prepareSubset-20170712/triples.txt"
        string_val: "diffbot_data/prepareSubset-20170712/triples.txt"
        string_val: "diffbot_data/prepareSubset-20170712/triples.txt"
        string_val: "diffbot_data/prepareSubset-20170712/triples.txt"
        string_val: "diffbot_data/prepareSubset-20170712/triples.txt"
        string_val: "diffbot_data/prepareSubset-20170712/triples.txt"
        string_val: "diffbot_data/prepareSubset-20170712/triples.txt"
        string_val: "diffbot_data/prepareSubset-20170712/triples.txt"
        string_val: "diffbot_data/prepareSubset-20170712/triples.txt"
        string_val: "diffbot_data/prepareSubset-20170712/triples.txt"
        string_val: "diffbot_data/prepareSubset-20170712/triples.txt"
        string_val: "diffbot_data/prepareSubset-20170712/triples.txt"
        string_val: "diffbot_data/prepareSubset-20170712/triples.txt"
        string_val: "diffbot_data/prepareSubset-20170712/triples.txt"
        string_val: "diffbot_data/prepareSubset-20170712/triples.txt"
        string_val: "diffbot_data/prepareSubset-20170712/triples.txt"
        string_val: "diffbot_data/prepareSubset-20170712/triples.txt"
        string_val: "diffbot_data/prepareSubset-20170712/triples.txt"
        string_val: "diffbot_data/prepareSubset-20170712/triples.txt"
        string_val: "diffbot_data/prepareSubset-20170712/triples.txt"
        string_val: "diffbot_data/prepareSubset-20170712/triples.txt"
        string_val: "diffbot_data/prepareSubset-20170712/triples.txt"
        string_val: "diffbot_data/prepareSubset-20170712/triples.txt"
        string_val: "diffbot_data/prepareSubset-20170712/triples.txt"
        string_val: "diffbot_data/prepareSubset-20170712/triples.txt"
        string_val: "diffbot_data/prepareSubset-20170712/triples.txt"
        string_val: "diffbot_data/prepareSubset-20170712/triples.txt"
        string_val: "diffbot_data/prepareSubset-20170712/triples.txt"
        string_val: "diffbot_data/prepareSubset-20170712/triples.txt"
        string_val: "diffbot_data/prepareSubset-20170712/triples.txt"
        string_val: "diffbot_data/prepareSubset-20170712/triples.txt"
        string_val: "diffbot_data/prepareSubset-20170712/triples.txt"
        string_val: "diffbot_data/prepareSubset-20170712/triples.txt"
        string_val: "diffbot_data/prepareSubset-20170712/triples.txt"
        string_val: "diffbot_data/prepareSubset-20170712/triples.txt"
        string_val: "diffbot_data/prepareSubset-20170712/triples.txt"
        string_val: "diffbot_data/prepareSubset-20170712/triples.txt"
        string_val: "diffbot_data/prepareSubset-20170712/triples.txt"
        string_val: "diffbot_data/prepareSubset-20170712/triples.txt"
        string_val: "diffbot_data/prepareSubset-20170712/triples.txt"
        string_val: "diffbot_data/prepareSubset-20170712/triples.txt"
        string_val: "diffbot_data/prepareSubset-20170712/triples.txt"
        string_val: "diffbot_data/prepareSubset-20170712/triples.txt"
        string_val: "diffbot_data/prepareSubset-20170712/triples.txt"
        string_val: "diffbot_data/prepareSubset-20170712/triples.txt"
        string_val: "diffbot_data/prepareSubset-20170712/triples.txt"
        string_val: "diffbot_data/prepareSubset-20170712/triples.txt"
        string_val: "diffbot_data/prepareSubset-20170712/triples.txt"
        string_val: "diffbot_data/prepareSubset-20170712/triples.txt"
        string_val: "diffbot_data/prepareSubset-20170712/triples.txt"
        string_val: "diffbot_data/prepareSubset-20170712/triples.txt"
        string_val: "diffbot_data/prepareSubset-20170712/triples.txt"
        string_val: "diffbot_data/prepareSubset-20170712/triples.txt"
        string_val: "diffbot_data/prepareSubset-20170712/triples.txt"
        string_val: "diffbot_data/prepareSubset-20170712/triples.txt"
        string_val: "diffbot_data/prepareSubset-20170712/triples.txt"
        string_val: "diffbot_data/prepareSubset-20170712/triples.txt"
        string_val: "diffbot_data/prepareSubset-20170712/triples.txt"
        string_val: "diffbot_data/prepareSubset-20170712/triples.txt"
        string_val: "diffbot_data/prepareSubset-20170712/triples.txt"
        string_val: "diffbot_data/prepareSubset-20170712/triples.txt"
        string_val: "diffbot_data/prepareSubset-20170712/triples.txt"
        string_val: "diffbot_data/prepareSubset-20170712/triples.txt"
        string_val: "diffbot_data/prepareSubset-20170712/triples.txt"
        string_val: "diffbot_data/prepareSubset-20170712/triples.txt"
        string_val: "diffbot_data/prepareSubset-20170712/triples.txt"
        string_val: "diffbot_data/prepareSubset-20170712/triples.txt"
        string_val: "diffbot_data/prepareSubset-20170712/triples.txt"
        string_val: "diffbot_data/prepareSubset-20170712/triples.txt"
        string_val: "diffbot_data/prepareSubset-20170712/triples.txt"
        string_val: "diffbot_data/prepareSubset-20170712/triples.txt"
        string_val: "diffbot_data/prepareSubset-20170712/triples.txt"
        string_val: "diffbot_data/prepareSubset-20170712/triples.txt"
        string_val: "diffbot_data/prepareSubset-20170712/triples.txt"
        string_val: "diffbot_data/prepareSubset-20170712/triples.txt"
        string_val: "diffbot_data/prepareSubset-20170712/triples.txt"
        string_val: "diffbot_data/prepareSubset-20170712/triples.txt"
        string_val: "diffbot_data/prepareSubset-20170712/triples.txt"
        string_val: "diffbot_data/prepareSubset-20170712/triples.txt"
        string_val: "diffbot_data/prepareSubset-20170712/triples.txt"
        string_val: "diffbot_data/prepareSubset-20170712/triples.txt"
        string_val: "diffbot_data/prepareSubset-20170712/triples.txt"
        string_val: "diffbot_data/prepareSubset-20170712/triples.txt"
        string_val: "diffbot_data/prepareSubset-20170712/triples.txt"
        string_val: "diffbot_data/prepareSubset-20170712/triples.txt"
        string_val: "diffbot_data/prepareSubset-20170712/triples.txt"
        string_val: "diffbot_data/prepareSubset-20170712/triples.txt"
        string_val: "diffbot_data/prepareSubset-20170712/triples.txt"
        string_val: "diffbot_data/prepareSubset-20170712/triples.txt"
        string_val: "diffbot_data/prepareSubset-20170712/triples.txt"
        string_val: "diffbot_data/prepareSubset-20170712/triples.txt"
        string_val: "diffbot_data/prepareSubset-20170712/triples.txt"
        string_val: "diffbot_data/prepareSubset-20170712/triples.txt"
        string_val: "diffbot_data/prepareSubset-20170712/triples.txt"
        string_val: "diffbot_data/prepareSubset-20170712/triples.txt"
        string_val: "diffbot_data/prepareSubset-20170712/triples.txt"
        string_val: "diffbot_data/prepareSubset-20170712/triples.txt"
        string_val: "diffbot_data/prepareSubset-20170712/triples.txt"
        string_val: "diffbot_data/prepareSubset-20170712/triples.txt"
        string_val: "diffbot_data/prepareSubset-20170712/triples.txt"
        string_val: "diffbot_data/prepareSubset-20170712/triples.txt"
        string_val: "diffbot_data/prepareSubset-20170712/triples.txt"
        string_val: "diffbot_data/prepareSubset-20170712/triples.txt"
        string_val: "diffbot_data/prepareSubset-20170712/triples.txt"
        string_val: "diffbot_data/prepareSubset-20170712/triples.txt"
        string_val: "diffbot_data/prepareSubset-20170712/triples.txt"
        string_val: "diffbot_data/prepareSubset-20170712/triples.txt"
        string_val: "diffbot_data/prepareSubset-20170712/triples.txt"
        string_val: "diffbot_data/prepareSubset-20170712/triples.txt"
        string_val: "diffbot_data/prepareSubset-20170712/triples.txt"
        string_val: "diffbot_data/prepareSubset-20170712/triples.txt"
        string_val: "diffbot_data/prepareSubset-20170712/triples.txt"
        string_val: "diffbot_data/prepareSubset-20170712/triples.txt"
        string_val: "diffbot_data/prepareSubset-20170712/triples.txt"
        string_val: "diffbot_data/prepareSubset-20170712/triples.txt"
        string_val: "diffbot_data/prepareSubset-20170712/triples.txt"
        string_val: "diffbot_data/prepareSubset-20170712/triples.txt"
        string_val: "diffbot_data/prepareSubset-20170712/triples.txt"
        string_val: "diffbot_data/prepareSubset-20170712/triples.txt"
        string_val: "diffbot_data/prepareSubset-20170712/triples.txt"
        string_val: "diffbot_data/prepareSubset-20170712/triples.txt"
        string_val: "diffbot_data/prepareSubset-20170712/triples.txt"
        string_val: "diffbot_data/prepareSubset-20170712/triples.txt"
        string_val: "diffbot_data/prepareSubset-20170712/triples.txt"
        string_val: "diffbot_data/prepareSubset-20170712/triples.txt"
        string_val: "diffbot_data/prepareSubset-20170712/triples.txt"
        string_val: "diffbot_data/prepareSubset-20170712/triples.txt"
        string_val: "diffbot_data/prepareSubset-20170712/triples.txt"
        string_val: "diffbot_data/prepareSubset-20170712/triples.txt"
        string_val: "diffbot_data/prepareSubset-20170712/triples.txt"
        string_val: "diffbot_data/prepareSubset-20170712/triples.txt"
        string_val: "diffbot_data/prepareSubset-20170712/triples.txt"
        string_val: "diffbot_data/prepareSubset-20170712/triples.txt"
        string_val: "diffbot_data/prepareSubset-20170712/triples.txt"
        string_val: "diffbot_data/prepareSubset-20170712/triples.txt"
        string_val: "diffbot_data/prepareSubset-20170712/triples.txt"
        string_val: "diffbot_data/prepareSubset-20170712/triples.txt"
        string_val: "diffbot_data/prepareSubset-20170712/triples.txt"
        string_val: "diffbot_data/prepareSubset-20170712/triples.txt"
        string_val: "diffbot_data/prepareSubset-20170712/triples.txt"
        string_val: "diffbot_data/prepareSubset-20170712/triples.txt"
        string_val: "diffbot_data/prepareSubset-20170712/triples.txt"
        string_val: "diffbot_data/prepareSubset-20170712/triples.txt"
        string_val: "diffbot_data/prepareSubset-20170712/triples.txt"
        string_val: "diffbot_data/prepareSubset-20170712/triples.txt"
        string_val: "diffbot_data/prepareSubset-20170712/triples.txt"
        string_val: "diffbot_data/prepareSubset-20170712/triples.txt"
        string_val: "diffbot_data/prepareSubset-20170712/triples.txt"
        string_val: "diffbot_data/prepareSubset-20170712/triples.txt"
        string_val: "diffbot_data/prepareSubset-20170712/triples.txt"
        string_val: "diffbot_data/prepareSubset-20170712/triples.txt"
        string_val: "diffbot_data/prepareSubset-20170712/triples.txt"
        string_val: "diffbot_data/prepareSubset-20170712/triples.txt"
        string_val: "diffbot_data/prepareSubset-20170712/triples.txt"
        string_val: "diffbot_data/prepareSubset-20170712/triples.txt"
        string_val: "diffbot_data/prepareSubset-20170712/triples.txt"
        string_val: "diffbot_data/prepareSubset-20170712/triples.txt"
        string_val: "diffbot_data/prepareSubset-20170712/triples.txt"
        string_val: "diffbot_data/prepareSubset-20170712/triples.txt"
        string_val: "diffbot_data/prepareSubset-20170712/triples.txt"
        string_val: "diffbot_data/prepareSubset-20170712/triples.txt"
        string_val: "diffbot_data/prepareSubset-20170712/triples.txt"
        string_val: "diffbot_data/prepareSubset-20170712/triples.txt"
        string_val: "diffbot_data/prepareSubset-20170712/triples.txt"
        string_val: "diffbot_data/prepareSubset-20170712/triples.txt"
        string_val: "diffbot_data/prepareSubset-20170712/triples.txt"
        string_val: "diffbot_data/prepareSubset-20170712/triples.txt"
        string_val: "diffbot_data/prepareSubset-20170712/triples.txt"
        string_val: "diffbot_data/prepareSubset-20170712/triples.txt"
        string_val: "diffbot_data/prepareSubset-20170712/triples.txt"
        string_val: "diffbot_data/prepareSubset-20170712/triples.txt"
        string_val: "diffbot_data/prepareSubset-20170712/triples.txt"
        string_val: "diffbot_data/prepareSubset-20170712/triples.txt"
        string_val: "diffbot_data/prepareSubset-20170712/triples.txt"
        string_val: "diffbot_data/prepareSubset-20170712/triples.txt"
        string_val: "diffbot_data/prepareSubset-20170712/triples.txt"
        string_val: "diffbot_data/prepareSubset-20170712/triples.txt"
        string_val: "diffbot_data/prepareSubset-20170712/triples.txt"
        string_val: "diffbot_data/prepareSubset-20170712/triples.txt"
        string_val: "diffbot_data/prepareSubset-20170712/triples.txt"
        string_val: "diffbot_data/prepareSubset-20170712/triples.txt"
        string_val: "diffbot_data/prepareSubset-20170712/triples.txt"
        string_val: "diffbot_data/prepareSubset-20170712/triples.txt"
        string_val: "diffbot_data/prepareSubset-20170712/triples.txt"
        string_val: "diffbot_data/prepareSubset-20170712/triples.txt"
        string_val: "diffbot_data/prepareSubset-20170712/triples.txt"
        string_val: "diffbot_data/prepareSubset-20170712/triples.txt"
        string_val: "diffbot_data/prepareSubset-20170712/triples.txt"
        string_val: "diffbot_data/prepareSubset-20170712/triples.txt"
        string_val: "diffbot_data/prepareSubset-20170712/triples.txt"
        string_val: "diffbot_data/prepareSubset-20170712/triples.txt"
        string_val: "diffbot_data/prepareSubset-20170712/triples.txt"
        string_val: "diffbot_data/prepareSubset-20170712/triples.txt"
        string_val: "diffbot_data/prepareSubset-20170712/triples.txt"
        string_val: "diffbot_data/prepareSubset-20170712/triples.txt"
        string_val: "diffbot_data/prepareSubset-20170712/triples.txt"
        string_val: "diffbot_data/prepareSubset-20170712/triples.txt"
        string_val: "diffbot_data/prepareSubset-20170712/triples.txt"
        string_val: "diffbot_data/prepareSubset-20170712/triples.txt"
        string_val: "diffbot_data/prepareSubset-20170712/triples.txt"
        string_val: "diffbot_data/prepareSubset-20170712/triples.txt"
        string_val: "diffbot_data/prepareSubset-20170712/triples.txt"
        string_val: "diffbot_data/prepareSubset-20170712/triples.txt"
        string_val: "diffbot_data/prepareSubset-20170712/triples.txt"
        string_val: "diffbot_data/prepareSubset-20170712/triples.txt"
        string_val: "diffbot_data/prepareSubset-20170712/triples.txt"
        string_val: "diffbot_data/prepareSubset-20170712/triples.txt"
        string_val: "diffbot_data/prepareSubset-20170712/triples.txt"
        string_val: "diffbot_data/prepareSubset-20170712/triples.txt"
        string_val: "diffbot_data/prepareSubset-20170712/triples.txt"
        string_val: "diffbot_data/prepareSubset-20170712/triples.txt"
        string_val: "diffbot_data/prepareSubset-20170712/triples.txt"
        string_val: "diffbot_data/prepareSubset-20170712/triples.txt"
        string_val: "diffbot_data/prepareSubset-20170712/triples.txt"
        string_val: "diffbot_data/prepareSubset-20170712/triples.txt"
        string_val: "diffbot_data/prepareSubset-20170712/triples.txt"
        string_val: "diffbot_data/prepareSubset-20170712/triples.txt"
        string_val: "diffbot_data/prepareSubset-20170712/triples.txt"
        string_val: "diffbot_data/prepareSubset-20170712/triples.txt"
        string_val: "diffbot_data/prepareSubset-20170712/triples.txt"
        string_val: "diffbot_data/prepareSubset-20170712/triples.txt"
        string_val: "diffbot_data/prepareSubset-20170712/triples.txt"
        string_val: "diffbot_data/prepareSubset-20170712/triples.txt"
        string_val: "diffbot_data/prepareSubset-20170712/triples.txt"
        string_val: "diffbot_data/prepareSubset-20170712/triples.txt"
        string_val: "diffbot_data/prepareSubset-20170712/triples.txt"
        string_val: "diffbot_data/prepareSubset-20170712/triples.txt"
        string_val: "diffbot_data/prepareSubset-20170712/triples.txt"
        string_val: "diffbot_data/prepareSubset-20170712/triples.txt"
        string_val: "diffbot_data/prepareSubset-20170712/triples.txt"
        string_val: "diffbot_data/prepareSubset-20170712/triples.txt"
        string_val: "diffbot_data/prepareSubset-20170712/triples.txt"
        string_val: "diffbot_data/prepareSubset-20170712/triples.txt"
        string_val: "diffbot_data/prepareSubset-20170712/triples.txt"
        string_val: "diffbot_data/prepareSubset-20170712/triples.txt"
        string_val: "diffbot_data/prepareSubset-20170712/triples.txt"
        string_val: "diffbot_data/prepareSubset-20170712/triples.txt"
        string_val: "diffbot_data/prepareSubset-20170712/triples.txt"
        string_val: "diffbot_data/prepareSubset-20170712/triples.txt"
        string_val: "diffbot_data/prepareSubset-20170712/triples.txt"
        string_val: "diffbot_data/prepareSubset-20170712/triples.txt"
        string_val: "diffbot_data/prepareSubset-20170712/triples.txt"
        string_val: "diffbot_data/prepareSubset-20170712/triples.txt"
        string_val: "diffbot_data/prepareSubset-20170712/triples.txt"
        string_val: "diffbot_data/prepareSubset-20170712/triples.txt"
        string_val: "diffbot_data/prepareSubset-20170712/triples.txt"
        string_val: "diffbot_data/prepareSubset-20170712/triples.txt"
        string_val: "diffbot_data/prepareSubset-20170712/triples.txt"
        string_val: "diffbot_data/prepareSubset-20170712/triples.txt"
        string_val: "diffbot_data/prepareSubset-20170712/triples.txt"
        string_val: "diffbot_data/prepareSubset-20170712/triples.txt"
        string_val: "diffbot_data/prepareSubset-20170712/triples.txt"
        string_val: "diffbot_data/prepareSubset-20170712/triples.txt"
        string_val: "diffbot_data/prepareSubset-20170712/triples.txt"
        string_val: "diffbot_data/prepareSubset-20170712/triples.txt"
        string_val: "diffbot_data/prepareSubset-20170712/triples.txt"
        string_val: "diffbot_data/prepareSubset-20170712/triples.txt"
        string_val: "diffbot_data/prepareSubset-20170712/triples.txt"
        string_val: "diffbot_data/prepareSubset-20170712/triples.txt"
        string_val: "diffbot_data/prepareSubset-20170712/triples.txt"
        string_val: "diffbot_data/prepareSubset-20170712/triples.txt"
        string_val: "diffbot_data/prepareSubset-20170712/triples.txt"
        string_val: "diffbot_data/prepareSubset-20170712/triples.txt"
        string_val: "diffbot_data/prepareSubset-20170712/triples.txt"
        string_val: "diffbot_data/prepareSubset-20170712/triples.txt"
        string_val: "diffbot_data/prepareSubset-20170712/triples.txt"
        string_val: "diffbot_data/prepareSubset-20170712/triples.txt"
        string_val: "diffbot_data/prepareSubset-20170712/triples.txt"
        string_val: "diffbot_data/prepareSubset-20170712/triples.txt"
        string_val: "diffbot_data/prepareSubset-20170712/triples.txt"
        string_val: "diffbot_data/prepareSubset-20170712/triples.txt"
        string_val: "diffbot_data/prepareSubset-20170712/triples.txt"
        string_val: "diffbot_data/prepareSubset-20170712/triples.txt"
        string_val: "diffbot_data/prepareSubset-20170712/triples.txt"
        string_val: "diffbot_data/prepareSubset-20170712/triples.txt"
        string_val: "diffbot_data/prepareSubset-20170712/triples.txt"
        string_val: "diffbot_data/prepareSubset-20170712/triples.txt"
        string_val: "diffbot_data/prepareSubset-20170712/triples.txt"
        string_val: "diffbot_data/prepareSubset-20170712/triples.txt"
        string_val: "diffbot_data/prepareSubset-20170712/triples.txt"
        string_val: "diffbot_data/prepareSubset-20170712/triples.txt"
        string_val: "diffbot_data/prepareSubset-20170712/triples.txt"
        string_val: "diffbot_data/prepareSubset-20170712/triples.txt"
        string_val: "diffbot_data/prepareSubset-20170712/triples.txt"
        string_val: "diffbot_data/prepareSubset-20170712/triples.txt"
        string_val: "diffbot_data/prepareSubset-20170712/triples.txt"
        string_val: "diffbot_data/prepareSubset-20170712/triples.txt"
        string_val: "diffbot_data/prepareSubset-20170712/triples.txt"
        string_val: "diffbot_data/prepareSubset-20170712/triples.txt"
        string_val: "diffbot_data/prepareSubset-20170712/triples.txt"
        string_val: "diffbot_data/prepareSubset-20170712/triples.txt"
        string_val: "diffbot_data/prepareSubset-20170712/triples.txt"
        string_val: "diffbot_data/prepareSubset-20170712/triples.txt"
        string_val: "diffbot_data/prepareSubset-20170712/triples.txt"
        string_val: "diffbot_data/prepareSubset-20170712/triples.txt"
        string_val: "diffbot_data/prepareSubset-20170712/triples.txt"
        string_val: "diffbot_data/prepareSubset-20170712/triples.txt"
        string_val: "diffbot_data/prepareSubset-20170712/triples.txt"
        string_val: "diffbot_data/prepareSubset-20170712/triples.txt"
        string_val: "diffbot_data/prepareSubset-20170712/triples.txt"
        string_val: "diffbot_data/prepareSubset-20170712/triples.txt"
        string_val: "diffbot_data/prepareSubset-20170712/triples.txt"
        string_val: "diffbot_data/prepareSubset-20170712/triples.txt"
        string_val: "diffbot_data/prepareSubset-20170712/triples.txt"
        string_val: "diffbot_data/prepareSubset-20170712/triples.txt"
        string_val: "diffbot_data/prepareSubset-20170712/triples.txt"
        string_val: "diffbot_data/prepareSubset-20170712/triples.txt"
        string_val: "diffbot_data/prepareSubset-20170712/triples.txt"
        string_val: "diffbot_data/prepareSubset-20170712/triples.txt"
        string_val: "diffbot_data/prepareSubset-20170712/triples.txt"
        string_val: "diffbot_data/prepareSubset-20170712/triples.txt"
        string_val: "diffbot_data/prepareSubset-20170712/triples.txt"
        string_val: "diffbot_data/prepareSubset-20170712/triples.txt"
        string_val: "diffbot_data/prepareSubset-20170712/triples.txt"
        string_val: "diffbot_data/prepareSubset-20170712/triples.txt"
        string_val: "diffbot_data/prepareSubset-20170712/triples.txt"
        string_val: "diffbot_data/prepareSubset-20170712/triples.txt"
        string_val: "diffbot_data/prepareSubset-20170712/triples.txt"
        string_val: "diffbot_data/prepareSubset-20170712/triples.txt"
        string_val: "diffbot_data/prepareSubset-20170712/triples.txt"
        string_val: "diffbot_data/prepareSubset-20170712/triples.txt"
        string_val: "diffbot_data/prepareSubset-20170712/triples.txt"
        string_val: "diffbot_data/prepareSubset-20170712/triples.txt"
        string_val: "diffbot_data/prepareSubset-20170712/triples.txt"
        string_val: "diffbot_data/prepareSubset-20170712/triples.txt"
        string_val: "diffbot_data/prepareSubset-20170712/triples.txt"
        string_val: "diffbot_data/prepareSubset-20170712/triples.txt"
        string_val: "diffbot_data/prepareSubset-20170712/triples.txt"
        string_val: "diffbot_data/prepareSubset-20170712/triples.txt"
        string_val: "diffbot_data/prepareSubset-20170712/triples.txt"
        string_val: "diffbot_data/prepareSubset-20170712/triples.txt"
        string_val: "diffbot_data/prepareSubset-20170712/triples.txt"
        string_val: "diffbot_data/prepareSubset-20170712/triples.txt"
        string_val: "diffbot_data/prepareSubset-20170712/triples.txt"
        string_val: "diffbot_data/prepareSubset-20170712/triples.txt"
        string_val: "diffbot_data/prepareSubset-20170712/triples.txt"
        string_val: "diffbot_data/prepareSubset-20170712/triples.txt"
        string_val: "diffbot_data/prepareSubset-20170712/triples.txt"
        string_val: "diffbot_data/prepareSubset-20170712/triples.txt"
        string_val: "diffbot_data/prepareSubset-20170712/triples.txt"
        string_val: "diffbot_data/prepareSubset-20170712/triples.txt"
        string_val: "diffbot_data/prepareSubset-20170712/triples.txt"
        string_val: "diffbot_data/prepareSubset-20170712/triples.txt"
        string_val: "diffbot_data/prepareSubset-20170712/triples.txt"
        string_val: "diffbot_data/prepareSubset-20170712/triples.txt"
        string_val: "diffbot_data/prepareSubset-20170712/triples.txt"
        string_val: "diffbot_data/prepareSubset-20170712/triples.txt"
        string_val: "diffbot_data/prepareSubset-20170712/triples.txt"
        string_val: "diffbot_data/prepareSubset-20170712/triples.txt"
      }
    }
  }
}
node {
  name: "input/input_producer/Size"
  op: "Const"
  attr {
    key: "_output_shapes"
    value {
      list {
        shape {
        }
      }
    }
  }
  attr {
    key: "dtype"
    value {
      type: DT_INT32
    }
  }
  attr {
    key: "value"
    value {
      tensor {
        dtype: DT_INT32
        tensor_shape {
        }
        int_val: 1000
      }
    }
  }
}
node {
  name: "input/input_producer/Greater/y"
  op: "Const"
  attr {
    key: "_output_shapes"
    value {
      list {
        shape {
        }
      }
    }
  }
  attr {
    key: "dtype"
    value {
      type: DT_INT32
    }
  }
  attr {
    key: "value"
    value {
      tensor {
        dtype: DT_INT32
        tensor_shape {
        }
        int_val: 0
      }
    }
  }
}
node {
  name: "input/input_producer/Greater"
  op: "Greater"
  input: "input/input_producer/Size"
  input: "input/input_producer/Greater/y"
  attr {
    key: "T"
    value {
      type: DT_INT32
    }
  }
  attr {
    key: "_output_shapes"
    value {
      list {
        shape {
        }
      }
    }
  }
}
node {
  name: "input/input_producer/Assert/Const"
  op: "Const"
  attr {
    key: "_output_shapes"
    value {
      list {
        shape {
        }
      }
    }
  }
  attr {
    key: "dtype"
    value {
      type: DT_STRING
    }
  }
  attr {
    key: "value"
    value {
      tensor {
        dtype: DT_STRING
        tensor_shape {
        }
        string_val: "string_input_producer requires a non-null input tensor"
      }
    }
  }
}
node {
  name: "input/input_producer/Assert/Assert/data_0"
  op: "Const"
  attr {
    key: "_output_shapes"
    value {
      list {
        shape {
        }
      }
    }
  }
  attr {
    key: "dtype"
    value {
      type: DT_STRING
    }
  }
  attr {
    key: "value"
    value {
      tensor {
        dtype: DT_STRING
        tensor_shape {
        }
        string_val: "string_input_producer requires a non-null input tensor"
      }
    }
  }
}
node {
  name: "input/input_producer/Assert/Assert"
  op: "Assert"
  input: "input/input_producer/Greater"
  input: "input/input_producer/Assert/Assert/data_0"
  attr {
    key: "T"
    value {
      list {
        type: DT_STRING
      }
    }
  }
  attr {
    key: "summarize"
    value {
      i: 3
    }
  }
}
node {
  name: "input/input_producer/Identity"
  op: "Identity"
  input: "input/input_producer/Const"
  input: "^input/input_producer/Assert/Assert"
  attr {
    key: "T"
    value {
      type: DT_STRING
    }
  }
  attr {
    key: "_output_shapes"
    value {
      list {
        shape {
          dim {
            size: 1000
          }
        }
      }
    }
  }
}
node {
  name: "input/input_producer/RandomShuffle"
  op: "RandomShuffle"
  input: "input/input_producer/Identity"
  attr {
    key: "T"
    value {
      type: DT_STRING
    }
  }
  attr {
    key: "_output_shapes"
    value {
      list {
        shape {
          dim {
            size: 1000
          }
        }
      }
    }
  }
  attr {
    key: "seed"
    value {
      i: 0
    }
  }
  attr {
    key: "seed2"
    value {
      i: 0
    }
  }
}
node {
  name: "input/input_producer"
  op: "FIFOQueueV2"
  attr {
    key: "_output_shapes"
    value {
      list {
        shape {
        }
      }
    }
  }
  attr {
    key: "capacity"
    value {
      i: 32
    }
  }
  attr {
    key: "component_types"
    value {
      list {
        type: DT_STRING
      }
    }
  }
  attr {
    key: "container"
    value {
      s: ""
    }
  }
  attr {
    key: "shapes"
    value {
      list {
        shape {
        }
      }
    }
  }
  attr {
    key: "shared_name"
    value {
      s: ""
    }
  }
}
node {
  name: "input/input_producer/input_producer_EnqueueMany"
  op: "QueueEnqueueManyV2"
  input: "input/input_producer"
  input: "input/input_producer/RandomShuffle"
  attr {
    key: "Tcomponents"
    value {
      list {
        type: DT_STRING
      }
    }
  }
  attr {
    key: "timeout_ms"
    value {
      i: -1
    }
  }
}
node {
  name: "input/input_producer/input_producer_Close"
  op: "QueueCloseV2"
  input: "input/input_producer"
  attr {
    key: "cancel_pending_enqueues"
    value {
      b: false
    }
  }
}
node {
  name: "input/input_producer/input_producer_Close_1"
  op: "QueueCloseV2"
  input: "input/input_producer"
  attr {
    key: "cancel_pending_enqueues"
    value {
      b: true
    }
  }
}
node {
  name: "input/input_producer/input_producer_Size"
  op: "QueueSizeV2"
  input: "input/input_producer"
  attr {
    key: "_output_shapes"
    value {
      list {
        shape {
        }
      }
    }
  }
}
node {
  name: "input/input_producer/Cast"
  op: "Cast"
  input: "input/input_producer/input_producer_Size"
  attr {
    key: "DstT"
    value {
      type: DT_FLOAT
    }
  }
  attr {
    key: "SrcT"
    value {
      type: DT_INT32
    }
  }
  attr {
    key: "_output_shapes"
    value {
      list {
        shape {
        }
      }
    }
  }
}
node {
  name: "input/input_producer/mul/y"
  op: "Const"
  attr {
    key: "_output_shapes"
    value {
      list {
        shape {
        }
      }
    }
  }
  attr {
    key: "dtype"
    value {
      type: DT_FLOAT
    }
  }
  attr {
    key: "value"
    value {
      tensor {
        dtype: DT_FLOAT
        tensor_shape {
        }
        float_val: 0.03125
      }
    }
  }
}
node {
  name: "input/input_producer/mul"
  op: "Mul"
  input: "input/input_producer/Cast"
  input: "input/input_producer/mul/y"
  attr {
    key: "T"
    value {
      type: DT_FLOAT
    }
  }
  attr {
    key: "_output_shapes"
    value {
      list {
        shape {
        }
      }
    }
  }
}
node {
  name: "input/input_producer/fraction_of_32_full/tags"
  op: "Const"
  attr {
    key: "_output_shapes"
    value {
      list {
        shape {
        }
      }
    }
  }
  attr {
    key: "dtype"
    value {
      type: DT_STRING
    }
  }
  attr {
    key: "value"
    value {
      tensor {
        dtype: DT_STRING
        tensor_shape {
        }
        string_val: "input/input_producer/fraction_of_32_full"
      }
    }
  }
}
node {
  name: "input/input_producer/fraction_of_32_full"
  op: "ScalarSummary"
  input: "input/input_producer/fraction_of_32_full/tags"
  input: "input/input_producer/mul"
  attr {
    key: "T"
    value {
      type: DT_FLOAT
    }
  }
  attr {
    key: "_output_shapes"
    value {
      list {
        shape {
        }
      }
    }
  }
}
node {
  name: "input/ReaderReadV2"
  op: "ReaderReadV2"
  input: "input/TextLineReaderV2"
  input: "input/input_producer"
  attr {
    key: "_output_shapes"
    value {
      list {
        shape {
        }
        shape {
        }
      }
    }
  }
}
node {
  name: "input/Const"
  op: "Const"
  attr {
    key: "_output_shapes"
    value {
      list {
        shape {
          dim {
          }
        }
      }
    }
  }
  attr {
    key: "dtype"
    value {
      type: DT_INT32
    }
  }
  attr {
    key: "value"
    value {
      tensor {
        dtype: DT_INT32
        tensor_shape {
          dim {
          }
        }
      }
    }
  }
}
node {
  name: "input/Const_1"
  op: "Const"
  attr {
    key: "_output_shapes"
    value {
      list {
        shape {
          dim {
          }
        }
      }
    }
  }
  attr {
    key: "dtype"
    value {
      type: DT_INT32
    }
  }
  attr {
    key: "value"
    value {
      tensor {
        dtype: DT_INT32
        tensor_shape {
          dim {
          }
        }
      }
    }
  }
}
node {
  name: "input/Const_2"
  op: "Const"
  attr {
    key: "_output_shapes"
    value {
      list {
        shape {
          dim {
          }
        }
      }
    }
  }
  attr {
    key: "dtype"
    value {
      type: DT_INT32
    }
  }
  attr {
    key: "value"
    value {
      tensor {
        dtype: DT_INT32
        tensor_shape {
          dim {
          }
        }
      }
    }
  }
}
node {
  name: "input/DecodeCSV"
  op: "DecodeCSV"
  input: "input/ReaderReadV2:1"
  input: "input/Const"
  input: "input/Const_1"
  input: "input/Const_2"
  attr {
    key: "OUT_TYPE"
    value {
      list {
        type: DT_INT32
        type: DT_INT32
        type: DT_INT32
      }
    }
  }
  attr {
    key: "_output_shapes"
    value {
      list {
        shape {
        }
        shape {
        }
        shape {
        }
      }
    }
  }
  attr {
    key: "field_delim"
    value {
      s: "\t"
    }
  }
}
node {
  name: "input/stack"
  op: "Pack"
  input: "input/DecodeCSV"
  input: "input/DecodeCSV:1"
  input: "input/DecodeCSV:2"
  attr {
    key: "N"
    value {
      i: 3
    }
  }
  attr {
    key: "T"
    value {
      type: DT_INT32
    }
  }
  attr {
    key: "_output_shapes"
    value {
      list {
        shape {
          dim {
            size: 3
          }
        }
      }
    }
  }
  attr {
    key: "axis"
    value {
      i: 0
    }
  }
}
node {
  name: "embeddings/Initializer/truncated_normal/shape"
  op: "Const"
  attr {
    key: "_class"
    value {
      list {
        s: "loc:@embeddings"
      }
    }
  }
  attr {
    key: "_output_shapes"
    value {
      list {
        shape {
          dim {
            size: 2
          }
        }
      }
    }
  }
  attr {
    key: "dtype"
    value {
      type: DT_INT32
    }
  }
  attr {
    key: "value"
    value {
      tensor {
        dtype: DT_INT32
        tensor_shape {
          dim {
            size: 2
          }
        }
        tensor_content: "F\214\000\000@\000\000\000"
      }
    }
  }
}
node {
  name: "embeddings/Initializer/truncated_normal/mean"
  op: "Const"
  attr {
    key: "_class"
    value {
      list {
        s: "loc:@embeddings"
      }
    }
  }
  attr {
    key: "_output_shapes"
    value {
      list {
        shape {
        }
      }
    }
  }
  attr {
    key: "dtype"
    value {
      type: DT_FLOAT
    }
  }
  attr {
    key: "value"
    value {
      tensor {
        dtype: DT_FLOAT
        tensor_shape {
        }
        float_val: 0.0
      }
    }
  }
}
node {
  name: "embeddings/Initializer/truncated_normal/stddev"
  op: "Const"
  attr {
    key: "_class"
    value {
      list {
        s: "loc:@embeddings"
      }
    }
  }
  attr {
    key: "_output_shapes"
    value {
      list {
        shape {
        }
      }
    }
  }
  attr {
    key: "dtype"
    value {
      type: DT_FLOAT
    }
  }
  attr {
    key: "value"
    value {
      tensor {
        dtype: DT_FLOAT
        tensor_shape {
        }
        float_val: 0.00850143656135
      }
    }
  }
}
node {
  name: "embeddings/Initializer/truncated_normal/TruncatedNormal"
  op: "TruncatedNormal"
  input: "embeddings/Initializer/truncated_normal/shape"
  attr {
    key: "T"
    value {
      type: DT_INT32
    }
  }
  attr {
    key: "_class"
    value {
      list {
        s: "loc:@embeddings"
      }
    }
  }
  attr {
    key: "_output_shapes"
    value {
      list {
        shape {
          dim {
            size: 35910
          }
          dim {
            size: 64
          }
        }
      }
    }
  }
  attr {
    key: "dtype"
    value {
      type: DT_FLOAT
    }
  }
  attr {
    key: "seed"
    value {
      i: 0
    }
  }
  attr {
    key: "seed2"
    value {
      i: 0
    }
  }
}
node {
  name: "embeddings/Initializer/truncated_normal/mul"
  op: "Mul"
  input: "embeddings/Initializer/truncated_normal/TruncatedNormal"
  input: "embeddings/Initializer/truncated_normal/stddev"
  attr {
    key: "T"
    value {
      type: DT_FLOAT
    }
  }
  attr {
    key: "_class"
    value {
      list {
        s: "loc:@embeddings"
      }
    }
  }
  attr {
    key: "_output_shapes"
    value {
      list {
        shape {
          dim {
            size: 35910
          }
          dim {
            size: 64
          }
        }
      }
    }
  }
}
node {
  name: "embeddings/Initializer/truncated_normal"
  op: "Add"
  input: "embeddings/Initializer/truncated_normal/mul"
  input: "embeddings/Initializer/truncated_normal/mean"
  attr {
    key: "T"
    value {
      type: DT_FLOAT
    }
  }
  attr {
    key: "_class"
    value {
      list {
        s: "loc:@embeddings"
      }
    }
  }
  attr {
    key: "_output_shapes"
    value {
      list {
        shape {
          dim {
            size: 35910
          }
          dim {
            size: 64
          }
        }
      }
    }
  }
}
node {
  name: "embeddings"
  op: "VariableV2"
  device: "/device:CPU:*"
  attr {
    key: "_class"
    value {
      list {
        s: "loc:@embeddings"
      }
    }
  }
  attr {
    key: "_output_shapes"
    value {
      list {
        shape {
          dim {
            size: 35910
          }
          dim {
            size: 64
          }
        }
      }
    }
  }
  attr {
    key: "container"
    value {
      s: ""
    }
  }
  attr {
    key: "dtype"
    value {
      type: DT_FLOAT
    }
  }
  attr {
    key: "shape"
    value {
      shape {
        dim {
          size: 35910
        }
        dim {
          size: 64
        }
      }
    }
  }
  attr {
    key: "shared_name"
    value {
      s: ""
    }
  }
}
node {
  name: "embeddings/Assign"
  op: "Assign"
  input: "embeddings"
  input: "embeddings/Initializer/truncated_normal"
  device: "/device:CPU:*"
  attr {
    key: "T"
    value {
      type: DT_FLOAT
    }
  }
  attr {
    key: "_class"
    value {
      list {
        s: "loc:@embeddings"
      }
    }
  }
  attr {
    key: "_output_shapes"
    value {
      list {
        shape {
          dim {
            size: 35910
          }
          dim {
            size: 64
          }
        }
      }
    }
  }
  attr {
    key: "use_locking"
    value {
      b: true
    }
  }
  attr {
    key: "validate_shape"
    value {
      b: true
    }
  }
}
node {
  name: "embeddings/read"
  op: "Identity"
  input: "embeddings"
  device: "/device:CPU:*"
  attr {
    key: "T"
    value {
      type: DT_FLOAT
    }
  }
  attr {
    key: "_class"
    value {
      list {
        s: "loc:@embeddings"
      }
    }
  }
  attr {
    key: "_output_shapes"
    value {
      list {
        shape {
          dim {
            size: 35910
          }
          dim {
            size: 64
          }
        }
      }
    }
  }
}
node {
  name: "tables/type_to_ids/keys"
  op: "Placeholder"
  device: "/device:CPU:*"
  attr {
    key: "_output_shapes"
    value {
      list {
        shape {
          dim {
            size: 10
          }
        }
      }
    }
  }
  attr {
    key: "dtype"
    value {
      type: DT_STRING
    }
  }
  attr {
    key: "shape"
    value {
      shape {
        dim {
          size: 10
        }
      }
    }
  }
}
node {
  name: "tables/type_to_ids/values"
  op: "Placeholder"
  device: "/device:CPU:*"
  attr {
    key: "_output_shapes"
    value {
      list {
        shape {
          dim {
            size: 10
          }
          dim {
            size: 100000
          }
        }
      }
    }
  }
  attr {
    key: "dtype"
    value {
      type: DT_INT64
    }
  }
  attr {
    key: "shape"
    value {
      shape {
        dim {
          size: 10
        }
        dim {
          size: 100000
        }
      }
    }
  }
}
node {
  name: "tables/type_to_ids/Const"
  op: "Const"
  device: "/device:CPU:*"
  attr {
    key: "_output_shapes"
    value {
      list {
        shape {
          dim {
            size: 100000
          }
        }
      }
    }
  }
  attr {
    key: "dtype"
    value {
      type: DT_INT64
    }
  }
  attr {
    key: "value"
    value {
      tensor {
        dtype: DT_INT64
        tensor_shape {
          dim {
            size: 100000
          }
        }
        tensor_content: "…"
      }
    }
  }
}
node {
  name: "tables/type_to_ids/type_to_ids"
  op: "MutableHashTableOfTensors"
  device: "/device:CPU:*"
  attr {
    key: "_output_shapes"
    value {
      list {
        shape {
          dim {
            size: 2
          }
        }
      }
    }
  }
  attr {
    key: "container"
    value {
      s: ""
    }
  }
  attr {
    key: "key_dtype"
    value {
      type: DT_STRING
    }
  }
  attr {
    key: "shared_name"
    value {
      s: "type_to_ids"
    }
  }
  attr {
    key: "use_node_name_sharing"
    value {
      b: false
    }
  }
  attr {
    key: "value_dtype"
    value {
      type: DT_INT64
    }
  }
  attr {
    key: "value_shape"
    value {
      shape {
        dim {
          size: 100000
        }
      }
    }
  }
}
node {
  name: "tables/type_to_ids/type_to_ids_lookup_table_export_values"
  op: "LookupTableExport"
  input: "tables/type_to_ids/type_to_ids"
  device: "/device:CPU:*"
  attr {
    key: "Tkeys"
    value {
      type: DT_STRING
    }
  }
  attr {
    key: "Tvalues"
    value {
      type: DT_INT64
    }
  }
  attr {
    key: "_class"
    value {
      list {
        s: "loc:@tables/type_to_ids/type_to_ids"
      }
    }
  }
  attr {
    key: "_output_shapes"
    value {
      list {
        shape {
          dim {
            size: -1
          }
        }
        shape {
          dim {
            size: -1
          }
          dim {
            size: 100000
          }
        }
      }
    }
  }
}
node {
  name: "tables/type_to_ids/type_to_ids_lookup_table_insert"
  op: "LookupTableInsert"
  input: "tables/type_to_ids/type_to_ids"
  input: "tables/type_to_ids/keys"
  input: "tables/type_to_ids/values"
  device: "/device:CPU:*"
  attr {
    key: "Tin"
    value {
      type: DT_STRING
    }
  }
  attr {
    key: "Tout"
    value {
      type: DT_INT64
    }
  }
  attr {
    key: "_class"
    value {
      list {
        s: "loc:@tables/type_to_ids/type_to_ids"
      }
    }
  }
}
node {
  name: "tables/id_to_type/keys"
  op: "Placeholder"
  device: "/device:CPU:*"
  attr {
    key: "_output_shapes"
    value {
      list {
        shape {
          dim {
            size: 35910
          }
        }
      }
    }
  }
  attr {
    key: "dtype"
    value {
      type: DT_INT64
    }
  }
  attr {
    key: "shape"
    value {
      shape {
        dim {
          size: 35910
        }
      }
    }
  }
}
node {
  name: "tables/id_to_type/values"
  op: "Placeholder"
  device: "/device:CPU:*"
  attr {
    key: "_output_shapes"
    value {
      list {
        shape {
          dim {
            size: 35910
          }
        }
      }
    }
  }
  attr {
    key: "dtype"
    value {
      type: DT_STRING
    }
  }
  attr {
    key: "shape"
    value {
      shape {
        dim {
          size: 35910
        }
      }
    }
  }
}
node {
  name: "tables/id_to_type/Const"
  op: "Const"
  device: "/device:CPU:*"
  attr {
    key: "_output_shapes"
    value {
      list {
        shape {
        }
      }
    }
  }
  attr {
    key: "dtype"
    value {
      type: DT_STRING
    }
  }
  attr {
    key: "value"
    value {
      tensor {
        dtype: DT_STRING
        tensor_shape {
        }
        string_val: "?"
      }
    }
  }
}
node {
  name: "tables/id_to_type/id_to_type"
  op: "MutableHashTable"
  device: "/device:CPU:*"
  attr {
    key: "_output_shapes"
    value {
      list {
        shape {
          dim {
            size: 2
          }
        }
      }
    }
  }
  attr {
    key: "container"
    value {
      s: ""
    }
  }
  attr {
    key: "key_dtype"
    value {
      type: DT_INT64
    }
  }
  attr {
    key: "shared_name"
    value {
      s: "id_to_type"
    }
  }
  attr {
    key: "use_node_name_sharing"
    value {
      b: false
    }
  }
  attr {
    key: "value_dtype"
    value {
      type: DT_STRING
    }
  }
}
node {
  name: "tables/id_to_type/id_to_type_lookup_table_export_values"
  op: "LookupTableExport"
  input: "tables/id_to_type/id_to_type"
  device: "/device:CPU:*"
  attr {
    key: "Tkeys"
    value {
      type: DT_INT64
    }
  }
  attr {
    key: "Tvalues"
    value {
      type: DT_STRING
    }
  }
  attr {
    key: "_class"
    value {
      list {
        s: "loc:@tables/id_to_type/id_to_type"
      }
    }
  }
  attr {
    key: "_output_shapes"
    value {
      list {
        shape {
          dim {
            size: -1
          }
        }
        shape {
          dim {
            size: -1
          }
        }
      }
    }
  }
}
node {
  name: "tables/id_to_type/id_to_type_lookup_table_insert"
  op: "LookupTableInsert"
  input: "tables/id_to_type/id_to_type"
  input: "tables/id_to_type/keys"
  input: "tables/id_to_type/values"
  device: "/device:CPU:*"
  attr {
    key: "Tin"
    value {
      type: DT_INT64
    }
  }
  attr {
    key: "Tout"
    value {
      type: DT_STRING
    }
  }
  attr {
    key: "_class"
    value {
      list {
        s: "loc:@tables/id_to_type/id_to_type"
      }
    }
  }
}
node {
  name: "batch/shuffle_batch/Const"
  op: "Const"
  attr {
    key: "_output_shapes"
    value {
      list {
        shape {
        }
      }
    }
  }
  attr {
    key: "dtype"
    value {
      type: DT_BOOL
    }
  }
  attr {
    key: "value"
    value {
      tensor {
        dtype: DT_BOOL
        tensor_shape {
        }
        bool_val: true
      }
    }
  }
}
node {
  name: "batch/shuffle_batch/random_shuffle_queue"
  op: "RandomShuffleQueueV2"
  attr {
    key: "_output_shapes"
    value {
      list {
        shape {
        }
      }
    }
  }
  attr {
    key: "capacity"
    value {
      i: 792958
    }
  }
  attr {
    key: "component_types"
    value {
      list {
        type: DT_INT32
      }
    }
  }
  attr {
    key: "container"
    value {
      s: ""
    }
  }
  attr {
    key: "min_after_dequeue"
    value {
      i: 396479
    }
  }
  attr {
    key: "seed"
    value {
      i: 0
    }
  }
  attr {
    key: "seed2"
    value {
      i: 0
    }
  }
  attr {
    key: "shapes"
    value {
      list {
        shape {
          dim {
            size: 3
          }
        }
      }
    }
  }
  attr {
    key: "shared_name"
    value {
      s: ""
    }
  }
}
node {
  name: "batch/shuffle_batch/random_shuffle_queue_enqueue"
  op: "QueueEnqueueV2"
  input: "batch/shuffle_batch/random_shuffle_queue"
  input: "input/stack"
  attr {
    key: "Tcomponents"
    value {
      list {
        type: DT_INT32
      }
    }
  }
  attr {
    key: "timeout_ms"
    value {
      i: -1
    }
  }
}
node {
  name: "batch/shuffle_batch/random_shuffle_queue_Close"
  op: "QueueCloseV2"
  input: "batch/shuffle_batch/random_shuffle_queue"
  attr {
    key: "cancel_pending_enqueues"
    value {
      b: false
    }
  }
}
node {
  name: "batch/shuffle_batch/random_shuffle_queue_Close_1"
  op: "QueueCloseV2"
  input: "batch/shuffle_batch/random_shuffle_queue"
  attr {
    key: "cancel_pending_enqueues"
    value {
      b: true
    }
  }
}
node {
  name: "batch/shuffle_batch/random_shuffle_queue_Size"
  op: "QueueSizeV2"
  input: "batch/shuffle_batch/random_shuffle_queue"
  attr {
    key: "_output_shapes"
    value {
      list {
        shape {
        }
      }
    }
  }
}
node {
  name: "batch/shuffle_batch/sub/y"
  op: "Const"
  attr {
    key: "_output_shapes"
    value {
      list {
        shape {
        }
      }
    }
  }
  attr {
    key: "dtype"
    value {
      type: DT_INT32
    }
  }
  attr {
    key: "value"
    value {
      tensor {
        dtype: DT_INT32
        tensor_shape {
        }
        int_val: 396479
      }
    }
  }
}
node {
  name: "batch/shuffle_batch/sub"
  op: "Sub"
  input: "batch/shuffle_batch/random_shuffle_queue_Size"
  input: "batch/shuffle_batch/sub/y"
  attr {
    key: "T"
    value {
      type: DT_INT32
    }
  }
  attr {
    key: "_output_shapes"
    value {
      list {
        shape {
        }
      }
    }
  }
}
node {
  name: "batch/shuffle_batch/Maximum/x"
  op: "Const"
  attr {
    key: "_output_shapes"
    value {
      list {
        shape {
        }
      }
    }
  }
  attr {
    key: "dtype"
    value {
      type: DT_INT32
    }
  }
  attr {
    key: "value"
    value {
      tensor {
        dtype: DT_INT32
        tensor_shape {
        }
        int_val: 0
      }
    }
  }
}
node {
  name: "batch/shuffle_batch/Maximum"
  op: "Maximum"
  input: "batch/shuffle_batch/Maximum/x"
  input: "batch/shuffle_batch/sub"
  attr {
    key: "T"
    value {
      type: DT_INT32
    }
  }
  attr {
    key: "_output_shapes"
    value {
      list {
        shape {
        }
      }
    }
  }
}
node {
  name: "batch/shuffle_batch/Cast"
  op: "Cast"
  input: "batch/shuffle_batch/Maximum"
  attr {
    key: "DstT"
    value {
      type: DT_FLOAT
    }
  }
  attr {
    key: "SrcT"
    value {
      type: DT_INT32
    }
  }
  attr {
    key: "_output_shapes"
    value {
      list {
        shape {
        }
      }
    }
  }
}
node {
  name: "batch/shuffle_batch/mul/y"
  op: "Const"
  attr {
    key: "_output_shapes"
    value {
      list {
        shape {
        }
      }
    }
  }
  attr {
    key: "dtype"
    value {
      type: DT_FLOAT
    }
  }
  attr {
    key: "value"
    value {
      tensor {
        dtype: DT_FLOAT
        tensor_shape {
        }
        float_val: 2.52220161201e-06
      }
    }
  }
}
node {
  name: "batch/shuffle_batch/mul"
  op: "Mul"
  input: "batch/shuffle_batch/Cast"
  input: "batch/shuffle_batch/mul/y"
  attr {
    key: "T"
    value {
      type: DT_FLOAT
    }
  }
  attr {
    key: "_output_shapes"
    value {
      list {
        shape {
        }
      }
    }
  }
}
node {
  name: "batch/shuffle_batch/fraction_over_396479_of_396479_full/tags"
  op: "Const"
  attr {
    key: "_output_shapes"
    value {
      list {
        shape {
        }
      }
    }
  }
  attr {
    key: "dtype"
    value {
      type: DT_STRING
    }
  }
  attr {
    key: "value"
    value {
      tensor {
        dtype: DT_STRING
        tensor_shape {
        }
        string_val: "batch/shuffle_batch/fraction_over_396479_of_396479_full"
      }
    }
  }
}
node {
  name: "batch/shuffle_batch/fraction_over_396479_of_396479_full"
  op: "ScalarSummary"
  input: "batch/shuffle_batch/fraction_over_396479_of_396479_full/tags"
  input: "batch/shuffle_batch/mul"
  attr {
    key: "T"
    value {
      type: DT_FLOAT
    }
  }
  attr {
    key: "_output_shapes"
    value {
      list {
        shape {
        }
      }
    }
  }
}
node {
  name: "batch/shuffle_batch/n"
  op: "Const"
  attr {
    key: "_output_shapes"
    value {
      list {
        shape {
        }
      }
    }
  }
  attr {
    key: "dtype"
    value {
      type: DT_INT32
    }
  }
  attr {
    key: "value"
    value {
      tensor {
        dtype: DT_INT32
        tensor_shape {
        }
        int_val: 512
      }
    }
  }
}
node {
  name: "batch/shuffle_batch"
  op: "QueueDequeueManyV2"
  input: "batch/shuffle_batch/random_shuffle_queue"
  input: "batch/shuffle_batch/n"
  attr {
    key: "_output_shapes"
    value {
      list {
        shape {
          dim {
            size: 512
          }
          dim {
            size: 3
          }
        }
      }
    }
  }
  attr {
    key: "component_types"
    value {
      list {
        type: DT_INT32
      }
    }
  }
  attr {
    key: "timeout_ms"
    value {
      i: -1
    }
  }
}
node {
  name: "batch/train/h_id/begin"
  op: "Const"
  device: "/device:CPU:*"
  attr {
    key: "_output_shapes"
    value {
      list {
        shape {
          dim {
            size: 2
          }
        }
      }
    }
  }
  attr {
    key: "dtype"
    value {
      type: DT_INT32
    }
  }
  attr {
    key: "value"
    value {
      tensor {
        dtype: DT_INT32
        tensor_shape {
          dim {
            size: 2
          }
        }
        tensor_content: "\000\000\000\000\000\000\000\000"
      }
    }
  }
}
node {
  name: "batch/train/h_id/size"
  op: "Const"
  device: "/device:CPU:*"
  attr {
    key: "_output_shapes"
    value {
      list {
        shape {
          dim {
            size: 2
          }
        }
      }
    }
  }
  attr {
    key: "dtype"
    value {
      type: DT_INT32
    }
  }
  attr {
    key: "value"
    value {
      tensor {
        dtype: DT_INT32
        tensor_shape {
          dim {
            size: 2
          }
        }
        tensor_content: "\377\377\377\377\001\000\000\000"
      }
    }
  }
}
node {
  name: "batch/train/h_id"
  op: "Slice"
  input: "batch/shuffle_batch"
  input: "batch/train/h_id/begin"
  input: "batch/train/h_id/size"
  device: "/device:CPU:*"
  attr {
    key: "Index"
    value {
      type: DT_INT32
    }
  }
  attr {
    key: "T"
    value {
      type: DT_INT32
    }
  }
  attr {
    key: "_output_shapes"
    value {
      list {
        shape {
          dim {
            size: 512
          }
          dim {
            size: 1
          }
        }
      }
    }
  }
}
node {
  name: "batch/train/embedding_lookup"
  op: "Gather"
  input: "embeddings/read"
  input: "batch/train/h_id"
  device: "/device:CPU:*"
  attr {
    key: "Tindices"
    value {
      type: DT_INT32
    }
  }
  attr {
    key: "Tparams"
    value {
      type: DT_FLOAT
    }
  }
  attr {
    key: "_class"
    value {
      list {
        s: "loc:@embeddings"
      }
    }
  }
  attr {
    key: "_output_shapes"
    value {
      list {
        shape {
          dim {
            size: 512
          }
          dim {
            size: 1
          }
          dim {
            size: 64
          }
        }
      }
    }
  }
  attr {
    key: "validate_indices"
    value {
      b: true
    }
  }
}
node {
  name: "batch/train/embedding_lookup/clip_by_norm/mul"
  op: "Mul"
  input: "batch/train/embedding_lookup"
  input: "batch/train/embedding_lookup"
  device: "/device:CPU:*"
  attr {
    key: "T"
    value {
      type: DT_FLOAT
    }
  }
  attr {
    key: "_class"
    value {
      list {
        s: "loc:@embeddings"
      }
    }
  }
  attr {
    key: "_output_shapes"
    value {
      list {
        shape {
          dim {
            size: 512
          }
          dim {
            size: 1
          }
          dim {
            size: 64
          }
        }
      }
    }
  }
}
node {
  name: "batch/train/embedding_lookup/clip_by_norm/Sum/reduction_indices"
  op: "Const"
  device: "/device:CPU:*"
  attr {
    key: "_class"
    value {
      list {
        s: "loc:@embeddings"
      }
    }
  }
  attr {
    key: "_output_shapes"
    value {
      list {
        shape {
          dim {
            size: 2
          }
        }
      }
    }
  }
  attr {
    key: "dtype"
    value {
      type: DT_INT32
    }
  }
  attr {
    key: "value"
    value {
      tensor {
        dtype: DT_INT32
        tensor_shape {
          dim {
            size: 2
          }
        }
        tensor_content: "\001\000\000\000\002\000\000\000"
      }
    }
  }
}
node {
  name: "batch/train/embedding_lookup/clip_by_norm/Sum"
  op: "Sum"
  input: "batch/train/embedding_lookup/clip_by_norm/mul"
  input: "batch/train/embedding_lookup/clip_by_norm/Sum/reduction_indices"
  device: "/device:CPU:*"
  attr {
    key: "T"
    value {
      type: DT_FLOAT
    }
  }
  attr {
    key: "Tidx"
    value {
      type: DT_INT32
    }
  }
  attr {
    key: "_class"
    value {
      list {
        s: "loc:@embeddings"
      }
    }
  }
  attr {
    key: "_output_shapes"
    value {
      list {
        shape {
          dim {
            size: 512
          }
          dim {
            size: 1
          }
          dim {
            size: 1
          }
        }
      }
    }
  }
  attr {
    key: "keep_dims"
    value {
      b: true
    }
  }
}
node {
  name: "batch/train/embedding_lookup/clip_by_norm/Rsqrt"
  op: "Rsqrt"
  input: "batch/train/embedding_lookup/clip_by_norm/Sum"
  device: "/device:CPU:*"
  attr {
    key: "T"
    value {
      type: DT_FLOAT
    }
  }
  attr {
    key: "_class"
    value {
      list {
        s: "loc:@embeddings"
      }
    }
  }
  attr {
    key: "_output_shapes"
    value {
      list {
        shape {
          dim {
            size: 512
          }
          dim {
            size: 1
          }
          dim {
            size: 1
          }
        }
      }
    }
  }
}
node {
  name: "batch/train/embedding_lookup/clip_by_norm/mul_1/y"
  op: "Const"
  device: "/device:CPU:*"
  attr {
    key: "_class"
    value {
      list {
        s: "loc:@embeddings"
      }
    }
  }
  attr {
    key: "_output_shapes"
    value {
      list {
        shape {
        }
      }
    }
  }
  attr {
    key: "dtype"
    value {
      type: DT_FLOAT
    }
  }
  attr {
    key: "value"
    value {
      tensor {
        dtype: DT_FLOAT
        tensor_shape {
        }
        float_val: 1.0
      }
    }
  }
}
node {
  name: "batch/train/embedding_lookup/clip_by_norm/mul_1"
  op: "Mul"
  input: "batch/train/embedding_lookup"
  input: "batch/train/embedding_lookup/clip_by_norm/mul_1/y"
  device: "/device:CPU:*"
  attr {
    key: "T"
    value {
      type: DT_FLOAT
    }
  }
  attr {
    key: "_class"
    value {
      list {
        s: "loc:@embeddings"
      }
    }
  }
  attr {
    key: "_output_shapes"
    value {
      list {
        shape {
          dim {
            size: 512
          }
          dim {
            size: 1
          }
          dim {
            size: 64
          }
        }
      }
    }
  }
}
node {
  name: "batch/train/embedding_lookup/clip_by_norm/Const"
  op: "Const"
  device: "/device:CPU:*"
  attr {
    key: "_class"
    value {
      list {
        s: "loc:@embeddings"
      }
    }
  }
  attr {
    key: "_output_shapes"
    value {
      list {
        shape {
        }
      }
    }
  }
  attr {
    key: "dtype"
    value {
      type: DT_FLOAT
    }
  }
  attr {
    key: "value"
    value {
      tensor {
        dtype: DT_FLOAT
        tensor_shape {
        }
        float_val: 1.0
      }
    }
  }
}
node {
  name: "batch/train/embedding_lookup/clip_by_norm/truediv/y"
  op: "Const"
  device: "/device:CPU:*"
  attr {
    key: "_class"
    value {
      list {
        s: "loc:@embeddings"
      }
    }
  }
  attr {
    key: "_output_shapes"
    value {
      list {
        shape {
        }
      }
    }
  }
  attr {
    key: "dtype"
    value {
      type: DT_FLOAT
    }
  }
  attr {
    key: "value"
    value {
      tensor {
        dtype: DT_FLOAT
        tensor_shape {
        }
        float_val: 1.0
      }
    }
  }
}
node {
  name: "batch/train/embedding_lookup/clip_by_norm/truediv"
  op: "RealDiv"
  input: "batch/train/embedding_lookup/clip_by_norm/Const"
  input: "batch/train/embedding_lookup/clip_by_norm/truediv/y"
  device: "/device:CPU:*"
  attr {
    key: "T"
    value {
      type: DT_FLOAT
    }
  }
  attr {
    key: "_class"
    value {
      list {
        s: "loc:@embeddings"
      }
    }
  }
  attr {
    key: "_output_shapes"
    value {
      list {
        shape {
        }
      }
    }
  }
}
node {
  name: "batch/train/embedding_lookup/clip_by_norm/Minimum"
  op: "Minimum"
  input: "batch/train/embedding_lookup/clip_by_norm/Rsqrt"
  input: "batch/train/embedding_lookup/clip_by_norm/truediv"
  device: "/device:CPU:*"
  attr {
    key: "T"
    value {
      type: DT_FLOAT
    }
  }
  attr {
    key: "_class"
    value {
      list {
        s: "loc:@embeddings"
      }
    }
  }
  attr {
    key: "_output_shapes"
    value {
      list {
        shape {
          dim {
            size: 512
          }
          dim {
            size: 1
          }
          dim {
            size: 1
          }
        }
      }
    }
  }
}
node {
  name: "batch/train/embedding_lookup/clip_by_norm/mul_2"
  op: "Mul"
  input: "batch/train/embedding_lookup/clip_by_norm/mul_1"
  input: "batch/train/embedding_lookup/clip_by_norm/Minimum"
  device: "/device:CPU:*"
  attr {
    key: "T"
    value {
      type: DT_FLOAT
    }
  }
  attr {
    key: "_class"
    value {
      list {
        s: "loc:@embeddings"
      }
    }
  }
  attr {
    key: "_output_shapes"
    value {
      list {
        shape {
          dim {
            size: 512
          }
          dim {
            size: 1
          }
          dim {
            size: 64
          }
        }
      }
    }
  }
}
node {
  name: "batch/train/embedding_lookup/clip_by_norm"
  op: "Identity"
  input: "batch/train/embedding_lookup/clip_by_norm/mul_2"
  device: "/device:CPU:*"
  attr {
    key: "T"
    value {
      type: DT_FLOAT
    }
  }
  attr {
    key: "_class"
    value {
      list {
        s: "loc:@embeddings"
      }
    }
  }
  attr {
    key: "_output_shapes"
    value {
      list {
        shape {
          dim {
            size: 512
          }
          dim {
            size: 1
          }
          dim {
            size: 64
          }
        }
      }
    }
  }
}
node {
  name: "batch/train/Reshape/shape"
  op: "Const"
  device: "/device:CPU:*"
  attr {
    key: "_output_shapes"
    value {
      list {
        shape {
          dim {
            size: 2
          }
        }
      }
    }
  }
  attr {
    key: "dtype"
    value {
      type: DT_INT32
    }
  }
  attr {
    key: "value"
    value {
      tensor {
        dtype: DT_INT32
        tensor_shape {
          dim {
            size: 2
          }
        }
        tensor_content: "\000\002\000\000@\000\000\000"
      }
    }
  }
}
node {
  name: "batch/train/Reshape"
  op: "Reshape"
  input: "batch/train/embedding_lookup/clip_by_norm"
  input: "batch/train/Reshape/shape"
  device: "/device:CPU:*"
  attr {
    key: "T"
    value {
      type: DT_FLOAT
    }
  }
  attr {
    key: "Tshape"
    value {
      type: DT_INT32
    }
  }
  attr {
    key: "_output_shapes"
    value {
      list {
        shape {
          dim {
            size: 512
          }
          dim {
            size: 64
          }
        }
      }
    }
  }
}
node {
  name: "batch/train/Slice/begin"
  op: "Const"
  device: "/device:CPU:*"
  attr {
    key: "_output_shapes"
    value {
      list {
        shape {
          dim {
            size: 2
          }
        }
      }
    }
  }
  attr {
    key: "dtype"
    value {
      type: DT_INT32
    }
  }
  attr {
    key: "value"
    value {
      tensor {
        dtype: DT_INT32
        tensor_shape {
          dim {
            size: 2
          }
        }
        tensor_content: "\000\000\000\000\000\000\000\000"
      }
    }
  }
}
node {
  name: "batch/train/Slice/size"
  op: "Const"
  device: "/device:CPU:*"
  attr {
    key: "_output_shapes"
    value {
      list {
        shape {
          dim {
            size: 2
          }
        }
      }
    }
  }
  attr {
    key: "dtype"
    value {
      type: DT_INT32
    }
  }
  attr {
    key: "value"
    value {
      tensor {
        dtype: DT_INT32
        tensor_shape {
          dim {
            size: 2
          }
        }
        tensor_content: "\377\377\377\377 \000\000\000"
      }
    }
  }
}
node {
  name: "batch/train/Slice"
  op: "Slice"
  input: "batch/train/Reshape"
  input: "batch/train/Slice/begin"
  input: "batch/train/Slice/size"
  device: "/device:CPU:*"
  attr {
    key: "Index"
    value {
      type: DT_INT32
    }
  }
  attr {
    key: "T"
    value {
      type: DT_FLOAT
    }
  }
  attr {
    key: "_output_shapes"
    value {
      list {
        shape {
          dim {
            size: 512
          }
          dim {
            size: 32
          }
        }
      }
    }
  }
}
node {
  name: "batch/train/Slice_1/begin"
  op: "Const"
  device: "/device:CPU:*"
  attr {
    key: "_output_shapes"
    value {
      list {
        shape {
          dim {
            size: 2
          }
        }
      }
    }
  }
  attr {
    key: "dtype"
    value {
      type: DT_INT32
    }
  }
  attr {
    key: "value"
    value {
      tensor {
        dtype: DT_INT32
        tensor_shape {
          dim {
            size: 2
          }
        }
        tensor_content: "\000\000\000\000 \000\000\000"
      }
    }
  }
}
node {
  name: "batch/train/Slice_1/size"
  op: "Const"
  device: "/device:CPU:*"
  attr {
    key: "_output_shapes"
    value {
      list {
        shape {
          dim {
            size: 2
          }
        }
      }
    }
  }
  attr {
    key: "dtype"
    value {
      type: DT_INT32
    }
  }
  attr {
    key: "value"
    value {
      tensor {
        dtype: DT_INT32
        tensor_shape {
          dim {
            size: 2
          }
        }
        tensor_content: "\377\377\377\377 \000\000\000"
      }
    }
  }
}
node {
  name: "batch/train/Slice_1"
  op: "Slice"
  input: "batch/train/Reshape"
  input: "batch/train/Slice_1/begin"
  input: "batch/train/Slice_1/size"
  device: "/device:CPU:*"
  attr {
    key: "Index"
    value {
      type: DT_INT32
    }
  }
  attr {
    key: "T"
    value {
      type: DT_FLOAT
    }
  }
  attr {
    key: "_output_shapes"
    value {
      list {
        shape {
          dim {
            size: 512
          }
          dim {
            size: 32
          }
        }
      }
    }
  }
}
node {
  name: "batch/train/imag"
  op: "Pack"
  input: "batch/train/Slice_1"
  device: "/device:CPU:*"
  attr {
    key: "N"
    value {
      i: 1
    }
  }
  attr {
    key: "T"
    value {
      type: DT_FLOAT
    }
  }
  attr {
    key: "_output_shapes"
    value {
      list {
        shape {
          dim {
            size: 1
          }
          dim {
            size: 512
          }
          dim {
            size: 32
          }
        }
      }
    }
  }
  attr {
    key: "axis"
    value {
      i: 0
    }
  }
}
node {
  name: "batch/train/h"
  op: "Complex"
  input: "batch/train/Slice"
  input: "batch/train/imag"
  device: "/device:CPU:*"
  attr {
    key: "T"
    value {
      type: DT_FLOAT
    }
  }
  attr {
    key: "Tout"
    value {
      type: DT_COMPLEX64
    }
  }
  attr {
    key: "_output_shapes"
    value {
      list {
        shape {
          dim {
            size: 1
          }
          dim {
            size: 512
          }
          dim {
            size: 32
          }
        }
      }
    }
  }
}
node {
  name: "batch/train/t_id/begin"
  op: "Const"
  device: "/device:CPU:*"
  attr {
    key: "_output_shapes"
    value {
      list {
        shape {
          dim {
            size: 2
          }
        }
      }
    }
  }
  attr {
    key: "dtype"
    value {
      type: DT_INT32
    }
  }
  attr {
    key: "value"
    value {
      tensor {
        dtype: DT_INT32
        tensor_shape {
          dim {
            size: 2
          }
        }
        tensor_content: "\000\000\000\000\001\000\000\000"
      }
    }
  }
}
node {
  name: "batch/train/t_id/size"
  op: "Const"
  device: "/device:CPU:*"
  attr {
    key: "_output_shapes"
    value {
      list {
        shape {
          dim {
            size: 2
          }
        }
      }
    }
  }
  attr {
    key: "dtype"
    value {
      type: DT_INT32
    }
  }
  attr {
    key: "value"
    value {
      tensor {
        dtype: DT_INT32
        tensor_shape {
          dim {
            size: 2
          }
        }
        tensor_content: "\377\377\377\377\001\000\000\000"
      }
    }
  }
}
node {
  name: "batch/train/t_id"
  op: "Slice"
  input: "batch/shuffle_batch"
  input: "batch/train/t_id/begin"
  input: "batch/train/t_id/size"
  device: "/device:CPU:*"
  attr {
    key: "Index"
    value {
      type: DT_INT32
    }
  }
  attr {
    key: "T"
    value {
      type: DT_INT32
    }
  }
  attr {
    key: "_output_shapes"
    value {
      list {
        shape {
          dim {
            size: 512
          }
          dim {
            size: 1
          }
        }
      }
    }
  }
}
node {
  name: "batch/train/embedding_lookup_1"
  op: "Gather"
  input: "embeddings/read"
  input: "batch/train/t_id"
  device: "/device:CPU:*"
  attr {
    key: "Tindices"
    value {
      type: DT_INT32
    }
  }
  attr {
    key: "Tparams"
    value {
      type: DT_FLOAT
    }
  }
  attr {
    key: "_class"
    value {
      list {
        s: "loc:@embeddings"
      }
    }
  }
  attr {
    key: "_output_shapes"
    value {
      list {
        shape {
          dim {
            size: 512
          }
          dim {
            size: 1
          }
          dim {
            size: 64
          }
        }
      }
    }
  }
  attr {
    key: "validate_indices"
    value {
      b: true
    }
  }
}
node {
  name: "batch/train/embedding_lookup_1/clip_by_norm/mul"
  op: "Mul"
  input: "batch/train/embedding_lookup_1"
  input: "batch/train/embedding_lookup_1"
  device: "/device:CPU:*"
  attr {
    key: "T"
    value {
      type: DT_FLOAT
    }
  }
  attr {
    key: "_class"
    value {
      list {
        s: "loc:@embeddings"
      }
    }
  }
  attr {
    key: "_output_shapes"
    value {
      list {
        shape {
          dim {
            size: 512
          }
          dim {
            size: 1
          }
          dim {
            size: 64
          }
        }
      }
    }
  }
}
node {
  name: "batch/train/embedding_lookup_1/clip_by_norm/Sum/reduction_indices"
  op: "Const"
  device: "/device:CPU:*"
  attr {
    key: "_class"
    value {
      list {
        s: "loc:@embeddings"
      }
    }
  }
  attr {
    key: "_output_shapes"
    value {
      list {
        shape {
          dim {
            size: 2
          }
        }
      }
    }
  }
  attr {
    key: "dtype"
    value {
      type: DT_INT32
    }
  }
  attr {
    key: "value"
    value {
      tensor {
        dtype: DT_INT32
        tensor_shape {
          dim {
            size: 2
          }
        }
        tensor_content: "\001\000\000\000\002\000\000\000"
      }
    }
  }
}
node {
  name: "batch/train/embedding_lookup_1/clip_by_norm/Sum"
  op: "Sum"
  input: "batch/train/embedding_lookup_1/clip_by_norm/mul"
  input: "batch/train/embedding_lookup_1/clip_by_norm/Sum/reduction_indices"
  device: "/device:CPU:*"
  attr {
    key: "T"
    value {
      type: DT_FLOAT
    }
  }
  attr {
    key: "Tidx"
    value {
      type: DT_INT32
    }
  }
  attr {
    key: "_class"
    value {
      list {
        s: "loc:@embeddings"
      }
    }
  }
  attr {
    key: "_output_shapes"
    value {
      list {
        shape {
          dim {
            size: 512
          }
          dim {
            size: 1
          }
          dim {
            size: 1
          }
        }
      }
    }
  }
  attr {
    key: "keep_dims"
    value {
      b: true
    }
  }
}
node {
  name: "batch/train/embedding_lookup_1/clip_by_norm/Rsqrt"
  op: "Rsqrt"
  input: "batch/train/embedding_lookup_1/clip_by_norm/Sum"
  device: "/device:CPU:*"
  attr {
    key: "T"
    value {
      type: DT_FLOAT
    }
  }
  attr {
    key: "_class"
    value {
      list {
        s: "loc:@embeddings"
      }
    }
  }
  attr {
    key: "_output_shapes"
    value {
      list {
        shape {
          dim {
            size: 512
          }
          dim {
            size: 1
          }
          dim {
            size: 1
          }
        }
      }
    }
  }
}
node {
  name: "batch/train/embedding_lookup_1/clip_by_norm/mul_1/y"
  op: "Const"
  device: "/device:CPU:*"
  attr {
    key: "_class"
    value {
      list {
        s: "loc:@embeddings"
      }
    }
  }
  attr {
    key: "_output_shapes"
    value {
      list {
        shape {
        }
      }
    }
  }
  attr {
    key: "dtype"
    value {
      type: DT_FLOAT
    }
  }
  attr {
    key: "value"
    value {
      tensor {
        dtype: DT_FLOAT
        tensor_shape {
        }
        float_val: 1.0
      }
    }
  }
}
node {
  name: "batch/train/embedding_lookup_1/clip_by_norm/mul_1"
  op: "Mul"
  input: "batch/train/embedding_lookup_1"
  input: "batch/train/embedding_lookup_1/clip_by_norm/mul_1/y"
  device: "/device:CPU:*"
  attr {
    key: "T"
    value {
      type: DT_FLOAT
    }
  }
  attr {
    key: "_class"
    value {
      list {
        s: "loc:@embeddings"
      }
    }
  }
  attr {
    key: "_output_shapes"
    value {
      list {
        shape {
          dim {
            size: 512
          }
          dim {
            size: 1
          }
          dim {
            size: 64
          }
        }
      }
    }
  }
}
node {
  name: "batch/train/embedding_lookup_1/clip_by_norm/Const"
  op: "Const"
  device: "/device:CPU:*"
  attr {
    key: "_class"
    value {
      list {
        s: "loc:@embeddings"
      }
    }
  }
  attr {
    key: "_output_shapes"
    value {
      list {
        shape {
        }
      }
    }
  }
  attr {
    key: "dtype"
    value {
      type: DT_FLOAT
    }
  }
  attr {
    key: "value"
    value {
      tensor {
        dtype: DT_FLOAT
        tensor_shape {
        }
        float_val: 1.0
      }
    }
  }
}
node {
  name: "batch/train/embedding_lookup_1/clip_by_norm/truediv/y"
  op: "Const"
  device: "/device:CPU:*"
  attr {
    key: "_class"
    value {
      list {
        s: "loc:@embeddings"
      }
    }
  }
  attr {
    key: "_output_shapes"
    value {
      list {
        shape {
        }
      }
    }
  }
  attr {
    key: "dtype"
    value {
      type: DT_FLOAT
    }
  }
  attr {
    key: "value"
    value {
      tensor {
        dtype: DT_FLOAT
        tensor_shape {
        }
        float_val: 1.0
      }
    }
  }
}
node {
  name: "batch/train/embedding_lookup_1/clip_by_norm/truediv"
  op: "RealDiv"
  input: "batch/train/embedding_lookup_1/clip_by_norm/Const"
  input: "batch/train/embedding_lookup_1/clip_by_norm/truediv/y"
  device: "/device:CPU:*"
  attr {
    key: "T"
    value {
      type: DT_FLOAT
    }
  }
  attr {
    key: "_class"
    value {
      list {
        s: "loc:@embeddings"
      }
    }
  }
  attr {
    key: "_output_shapes"
    value {
      list {
        shape {
        }
      }
    }
  }
}
node {
  name: "batch/train/embedding_lookup_1/clip_by_norm/Minimum"
  op: "Minimum"
  input: "batch/train/embedding_lookup_1/clip_by_norm/Rsqrt"
  input: "batch/train/embedding_lookup_1/clip_by_norm/truediv"
  device: "/device:CPU:*"
  attr {
    key: "T"
    value {
      type: DT_FLOAT
    }
  }
  attr {
    key: "_class"
    value {
      list {
        s: "loc:@embeddings"
      }
    }
  }
  attr {
    key: "_output_shapes"
    value {
      list {
        shape {
          dim {
            size: 512
          }
          dim {
            size: 1
          }
          dim {
            size: 1
          }
        }
      }
    }
  }
}
node {
  name: "batch/train/embedding_lookup_1/clip_by_norm/mul_2"
  op: "Mul"
  input: "batch/train/embedding_lookup_1/clip_by_norm/mul_1"
  input: "batch/train/embedding_lookup_1/clip_by_norm/Minimum"
  device: "/device:CPU:*"
  attr {
    key: "T"
    value {
      type: DT_FLOAT
    }
  }
  attr {
    key: "_class"
    value {
      list {
        s: "loc:@embeddings"
      }
    }
  }
  attr {
    key: "_output_shapes"
    value {
      list {
        shape {
          dim {
            size: 512
          }
          dim {
            size: 1
          }
          dim {
            size: 64
          }
        }
      }
    }
  }
}
node {
  name: "batch/train/embedding_lookup_1/clip_by_norm"
  op: "Identity"
  input: "batch/train/embedding_lookup_1/clip_by_norm/mul_2"
  device: "/device:CPU:*"
  attr {
    key: "T"
    value {
      type: DT_FLOAT
    }
  }
  attr {
    key: "_class"
    value {
      list {
        s: "loc:@embeddings"
      }
    }
  }
  attr {
    key: "_output_shapes"
    value {
      list {
        shape {
          dim {
            size: 512
          }
          dim {
            size: 1
          }
          dim {
            size: 64
          }
        }
      }
    }
  }
}
node {
  name: "batch/train/Reshape_1/shape"
  op: "Const"
  device: "/device:CPU:*"
  attr {
    key: "_output_shapes"
    value {
      list {
        shape {
          dim {
            size: 2
          }
        }
      }
    }
  }
  attr {
    key: "dtype"
    value {
      type: DT_INT32
    }
  }
  attr {
    key: "value"
    value {
      tensor {
        dtype: DT_INT32
        tensor_shape {
          dim {
            size: 2
          }
        }
        tensor_content: "\000\002\000\000@\000\000\000"
      }
    }
  }
}
node {
  name: "batch/train/Reshape_1"
  op: "Reshape"
  input: "batch/train/embedding_lookup_1/clip_by_norm"
  input: "batch/train/Reshape_1/shape"
  device: "/device:CPU:*"
  attr {
    key: "T"
    value {
      type: DT_FLOAT
    }
  }
  attr {
    key: "Tshape"
    value {
      type: DT_INT32
    }
  }
  attr {
    key: "_output_shapes"
    value {
      list {
        shape {
          dim {
            size: 512
          }
          dim {
            size: 64
          }
        }
      }
    }
  }
}
node {
  name: "batch/train/Slice_2/begin"
  op: "Const"
  device: "/device:CPU:*"
  attr {
    key: "_output_shapes"
    value {
      list {
        shape {
          dim {
            size: 2
          }
        }
      }
    }
  }
  attr {
    key: "dtype"
    value {
      type: DT_INT32
    }
  }
  attr {
    key: "value"
    value {
      tensor {
        dtype: DT_INT32
        tensor_shape {
          dim {
            size: 2
          }
        }
        tensor_content: "\000\000\000\000\000\000\000\000"
      }
    }
  }
}
node {
  name: "batch/train/Slice_2/size"
  op: "Const"
  device: "/device:CPU:*"
  attr {
    key: "_output_shapes"
    value {
      list {
        shape {
          dim {
            size: 2
          }
        }
      }
    }
  }
  attr {
    key: "dtype"
    value {
      type: DT_INT32
    }
  }
  attr {
    key: "value"
    value {
      tensor {
        dtype: DT_INT32
        tensor_shape {
          dim {
            size: 2
          }
        }
        tensor_content: "\377\377\377\377 \000\000\000"
      }
    }
  }
}
node {
  name: "batch/train/Slice_2"
  op: "Slice"
  input: "batch/train/Reshape_1"
  input: "batch/train/Slice_2/begin"
  input: "batch/train/Slice_2/size"
  device: "/device:CPU:*"
  attr {
    key: "Index"
    value {
      type: DT_INT32
    }
  }
  attr {
    key: "T"
    value {
      type: DT_FLOAT
    }
  }
  attr {
    key: "_output_shapes"
    value {
      list {
        shape {
          dim {
            size: 512
          }
          dim {
            size: 32
          }
        }
      }
    }
  }
}
node {
  name: "batch/train/Slice_3/begin"
  op: "Const"
  device: "/device:CPU:*"
  attr {
    key: "_output_shapes"
    value {
      list {
        shape {
          dim {
            size: 2
          }
        }
      }
    }
  }
  attr {
    key: "dtype"
    value {
      type: DT_INT32
    }
  }
  attr {
    key: "value"
    value {
      tensor {
        dtype: DT_INT32
        tensor_shape {
          dim {
            size: 2
          }
        }
        tensor_content: "\000\000\000\000 \000\000\000"
      }
    }
  }
}
node {
  name: "batch/train/Slice_3/size"
  op: "Const"
  device: "/device:CPU:*"
  attr {
    key: "_output_shapes"
    value {
      list {
        shape {
          dim {
            size: 2
          }
        }
      }
    }
  }
  attr {
    key: "dtype"
    value {
      type: DT_INT32
    }
  }
  attr {
    key: "value"
    value {
      tensor {
        dtype: DT_INT32
        tensor_shape {
          dim {
            size: 2
          }
        }
        tensor_content: "\377\377\377\377 \000\000\000"
      }
    }
  }
}
node {
  name: "batch/train/Slice_3"
  op: "Slice"
  input: "batch/train/Reshape_1"
  input: "batch/train/Slice_3/begin"
  input: "batch/train/Slice_3/size"
  device: "/device:CPU:*"
  attr {
    key: "Index"
    value {
      type: DT_INT32
    }
  }
  attr {
    key: "T"
    value {
      type: DT_FLOAT
    }
  }
  attr {
    key: "_output_shapes"
    value {
      list {
        shape {
          dim {
            size: 512
          }
          dim {
            size: 32
          }
        }
      }
    }
  }
}
node {
  name: "batch/train/imag_1"
  op: "Pack"
  input: "batch/train/Slice_3"
  device: "/device:CPU:*"
  attr {
    key: "N"
    value {
      i: 1
    }
  }
  attr {
    key: "T"
    value {
      type: DT_FLOAT
    }
  }
  attr {
    key: "_output_shapes"
    value {
      list {
        shape {
          dim {
            size: 1
          }
          dim {
            size: 512
          }
          dim {
            size: 32
          }
        }
      }
    }
  }
  attr {
    key: "axis"
    value {
      i: 0
    }
  }
}
node {
  name: "batch/train/t"
  op: "Complex"
  input: "batch/train/Slice_2"
  input: "batch/train/imag_1"
  device: "/device:CPU:*"
  attr {
    key: "T"
    value {
      type: DT_FLOAT
    }
  }
  attr {
    key: "Tout"
    value {
      type: DT_COMPLEX64
    }
  }
  attr {
    key: "_output_shapes"
    value {
      list {
        shape {
          dim {
            size: 1
          }
          dim {
            size: 512
          }
          dim {
            size: 32
          }
        }
      }
    }
  }
}
node {
  name: "batch/train/r_id/begin"
  op: "Const"
  device: "/device:CPU:*"
  attr {
    key: "_output_shapes"
    value {
      list {
        shape {
          dim {
            size: 2
          }
        }
      }
    }
  }
  attr {
    key: "dtype"
    value {
      type: DT_INT32
    }
  }
  attr {
    key: "value"
    value {
      tensor {
        dtype: DT_INT32
        tensor_shape {
          dim {
            size: 2
          }
        }
        tensor_content: "\000\000\000\000\002\000\000\000"
      }
    }
  }
}
node {
  name: "batch/train/r_id/size"
  op: "Const"
  device: "/device:CPU:*"
  attr {
    key: "_output_shapes"
    value {
      list {
        shape {
          dim {
            size: 2
          }
        }
      }
    }
  }
  attr {
    key: "dtype"
    value {
      type: DT_INT32
    }
  }
  attr {
    key: "value"
    value {
      tensor {
        dtype: DT_INT32
        tensor_shape {
          dim {
            size: 2
          }
        }
        tensor_content: "\377\377\377\377\001\000\000\000"
      }
    }
  }
}
node {
  name: "batch/train/r_id"
  op: "Slice"
  input: "batch/shuffle_batch"
  input: "batch/train/r_id/begin"
  input: "batch/train/r_id/size"
  device: "/device:CPU:*"
  attr {
    key: "Index"
    value {
      type: DT_INT32
    }
  }
  attr {
    key: "T"
    value {
      type: DT_INT32
    }
  }
  attr {
    key: "_output_shapes"
    value {
      list {
        shape {
          dim {
            size: 512
          }
          dim {
            size: 1
          }
        }
      }
    }
  }
}
node {
  name: "batch/train/embedding_lookup_2"
  op: "Gather"
  input: "embeddings/read"
  input: "batch/train/r_id"
  device: "/device:CPU:*"
  attr {
    key: "Tindices"
    value {
      type: DT_INT32
    }
  }
  attr {
    key: "Tparams"
    value {
      type: DT_FLOAT
    }
  }
  attr {
    key: "_class"
    value {
      list {
        s: "loc:@embeddings"
      }
    }
  }
  attr {
    key: "_output_shapes"
    value {
      list {
        shape {
          dim {
            size: 512
          }
          dim {
            size: 1
          }
          dim {
            size: 64
          }
        }
      }
    }
  }
  attr {
    key: "validate_indices"
    value {
      b: true
    }
  }
}
node {
  name: "batch/train/embedding_lookup_2/clip_by_norm/mul"
  op: "Mul"
  input: "batch/train/embedding_lookup_2"
  input: "batch/train/embedding_lookup_2"
  device: "/device:CPU:*"
  attr {
    key: "T"
    value {
      type: DT_FLOAT
    }
  }
  attr {
    key: "_class"
    value {
      list {
        s: "loc:@embeddings"
      }
    }
  }
  attr {
    key: "_output_shapes"
    value {
      list {
        shape {
          dim {
            size: 512
          }
          dim {
            size: 1
          }
          dim {
            size: 64
          }
        }
      }
    }
  }
}
node {
  name: "batch/train/embedding_lookup_2/clip_by_norm/Sum/reduction_indices"
  op: "Const"
  device: "/device:CPU:*"
  attr {
    key: "_class"
    value {
      list {
        s: "loc:@embeddings"
      }
    }
  }
  attr {
    key: "_output_shapes"
    value {
      list {
        shape {
          dim {
            size: 2
          }
        }
      }
    }
  }
  attr {
    key: "dtype"
    value {
      type: DT_INT32
    }
  }
  attr {
    key: "value"
    value {
      tensor {
        dtype: DT_INT32
        tensor_shape {
          dim {
            size: 2
          }
        }
        tensor_content: "\001\000\000\000\002\000\000\000"
      }
    }
  }
}
node {
  name: "batch/train/embedding_lookup_2/clip_by_norm/Sum"
  op: "Sum"
  input: "batch/train/embedding_lookup_2/clip_by_norm/mul"
  input: "batch/train/embedding_lookup_2/clip_by_norm/Sum/reduction_indices"
  device: "/device:CPU:*"
  attr {
    key: "T"
    value {
      type: DT_FLOAT
    }
  }
  attr {
    key: "Tidx"
    value {
      type: DT_INT32
    }
  }
  attr {
    key: "_class"
    value {
      list {
        s: "loc:@embeddings"
      }
    }
  }
  attr {
    key: "_output_shapes"
    value {
      list {
        shape {
          dim {
            size: 512
          }
          dim {
            size: 1
          }
          dim {
            size: 1
          }
        }
      }
    }
  }
  attr {
    key: "keep_dims"
    value {
      b: true
    }
  }
}
node {
  name: "batch/train/embedding_lookup_2/clip_by_norm/Rsqrt"
  op: "Rsqrt"
  input: "batch/train/embedding_lookup_2/clip_by_norm/Sum"
  device: "/device:CPU:*"
  attr {
    key: "T"
    value {
      type: DT_FLOAT
    }
  }
  attr {
    key: "_class"
    value {
      list {
        s: "loc:@embeddings"
      }
    }
  }
  attr {
    key: "_output_shapes"
    value {
      list {
        shape {
          dim {
            size: 512
          }
          dim {
            size: 1
          }
          dim {
            size: 1
          }
        }
      }
    }
  }
}
node {
  name: "batch/train/embedding_lookup_2/clip_by_norm/mul_1/y"
  op: "Const"
  device: "/device:CPU:*"
  attr {
    key: "_class"
    value {
      list {
        s: "loc:@embeddings"
      }
    }
  }
  attr {
    key: "_output_shapes"
    value {
      list {
        shape {
        }
      }
    }
  }
  attr {
    key: "dtype"
    value {
      type: DT_FLOAT
    }
  }
  attr {
    key: "value"
    value {
      tensor {
        dtype: DT_FLOAT
        tensor_shape {
        }
        float_val: 1.0
      }
    }
  }
}
node {
  name: "batch/train/embedding_lookup_2/clip_by_norm/mul_1"
  op: "Mul"
  input: "batch/train/embedding_lookup_2"
  input: "batch/train/embedding_lookup_2/clip_by_norm/mul_1/y"
  device: "/device:CPU:*"
  attr {
    key: "T"
    value {
      type: DT_FLOAT
    }
  }
  attr {
    key: "_class"
    value {
      list {
        s: "loc:@embeddings"
      }
    }
  }
  attr {
    key: "_output_shapes"
    value {
      list {
        shape {
          dim {
            size: 512
          }
          dim {
            size: 1
          }
          dim {
            size: 64
          }
        }
      }
    }
  }
}
node {
  name: "batch/train/embedding_lookup_2/clip_by_norm/Const"
  op: "Const"
  device: "/device:CPU:*"
  attr {
    key: "_class"
    value {
      list {
        s: "loc:@embeddings"
      }
    }
  }
  attr {
    key: "_output_shapes"
    value {
      list {
        shape {
        }
      }
    }
  }
  attr {
    key: "dtype"
    value {
      type: DT_FLOAT
    }
  }
  attr {
    key: "value"
    value {
      tensor {
        dtype: DT_FLOAT
        tensor_shape {
        }
        float_val: 1.0
      }
    }
  }
}
node {
  name: "batch/train/embedding_lookup_2/clip_by_norm/truediv/y"
  op: "Const"
  device: "/device:CPU:*"
  attr {
    key: "_class"
    value {
      list {
        s: "loc:@embeddings"
      }
    }
  }
  attr {
    key: "_output_shapes"
    value {
      list {
        shape {
        }
      }
    }
  }
  attr {
    key: "dtype"
    value {
      type: DT_FLOAT
    }
  }
  attr {
    key: "value"
    value {
      tensor {
        dtype: DT_FLOAT
        tensor_shape {
        }
        float_val: 1.0
      }
    }
  }
}
node {
  name: "batch/train/embedding_lookup_2/clip_by_norm/truediv"
  op: "RealDiv"
  input: "batch/train/embedding_lookup_2/clip_by_norm/Const"
  input: "batch/train/embedding_lookup_2/clip_by_norm/truediv/y"
  device: "/device:CPU:*"
  attr {
    key: "T"
    value {
      type: DT_FLOAT
    }
  }
  attr {
    key: "_class"
    value {
      list {
        s: "loc:@embeddings"
      }
    }
  }
  attr {
    key: "_output_shapes"
    value {
      list {
        shape {
        }
      }
    }
  }
}
node {
  name: "batch/train/embedding_lookup_2/clip_by_norm/Minimum"
  op: "Minimum"
  input: "batch/train/embedding_lookup_2/clip_by_norm/Rsqrt"
  input: "batch/train/embedding_lookup_2/clip_by_norm/truediv"
  device: "/device:CPU:*"
  attr {
    key: "T"
    value {
      type: DT_FLOAT
    }
  }
  attr {
    key: "_class"
    value {
      list {
        s: "loc:@embeddings"
      }
    }
  }
  attr {
    key: "_output_shapes"
    value {
      list {
        shape {
          dim {
            size: 512
          }
          dim {
            size: 1
          }
          dim {
            size: 1
          }
        }
      }
    }
  }
}
node {
  name: "batch/train/embedding_lookup_2/clip_by_norm/mul_2"
  op: "Mul"
  input: "batch/train/embedding_lookup_2/clip_by_norm/mul_1"
  input: "batch/train/embedding_lookup_2/clip_by_norm/Minimum"
  device: "/device:CPU:*"
  attr {
    key: "T"
    value {
      type: DT_FLOAT
    }
  }
  attr {
    key: "_class"
    value {
      list {
        s: "loc:@embeddings"
      }
    }
  }
  attr {
    key: "_output_shapes"
    value {
      list {
        shape {
          dim {
            size: 512
          }
          dim {
            size: 1
          }
          dim {
            size: 64
          }
        }
      }
    }
  }
}
node {
  name: "batch/train/embedding_lookup_2/clip_by_norm"
  op: "Identity"
  input: "batch/train/embedding_lookup_2/clip_by_norm/mul_2"
  device: "/device:CPU:*"
  attr {
    key: "T"
    value {
      type: DT_FLOAT
    }
  }
  attr {
    key: "_class"
    value {
      list {
        s: "loc:@embeddings"
      }
    }
  }
  attr {
    key: "_output_shapes"
    value {
      list {
        shape {
          dim {
            size: 512
          }
          dim {
            size: 1
          }
          dim {
            size: 64
          }
        }
      }
    }
  }
}
node {
  name: "batch/train/Reshape_2/shape"
  op: "Const"
  device: "/device:CPU:*"
  attr {
    key: "_output_shapes"
    value {
      list {
        shape {
          dim {
            size: 2
          }
        }
      }
    }
  }
  attr {
    key: "dtype"
    value {
      type: DT_INT32
    }
  }
  attr {
    key: "value"
    value {
      tensor {
        dtype: DT_INT32
        tensor_shape {
          dim {
            size: 2
          }
        }
        tensor_content: "\000\002\000\000@\000\000\000"
      }
    }
  }
}
node {
  name: "batch/train/Reshape_2"
  op: "Reshape"
  input: "batch/train/embedding_lookup_2/clip_by_norm"
  input: "batch/train/Reshape_2/shape"
  device: "/device:CPU:*"
  attr {
    key: "T"
    value {
      type: DT_FLOAT
    }
  }
  attr {
    key: "Tshape"
    value {
      type: DT_INT32
    }
  }
  attr {
    key: "_output_shapes"
    value {
      list {
        shape {
          dim {
            size: 512
          }
          dim {
            size: 64
          }
        }
      }
    }
  }
}
node {
  name: "batch/train/Slice_4/begin"
  op: "Const"
  device: "/device:CPU:*"
  attr {
    key: "_output_shapes"
    value {
      list {
        shape {
          dim {
            size: 2
          }
        }
      }
    }
  }
  attr {
    key: "dtype"
    value {
      type: DT_INT32
    }
  }
  attr {
    key: "value"
    value {
      tensor {
        dtype: DT_INT32
        tensor_shape {
          dim {
            size: 2
          }
        }
        tensor_content: "\000\000\000\000\000\000\000\000"
      }
    }
  }
}
node {
  name: "batch/train/Slice_4/size"
  op: "Const"
  device: "/device:CPU:*"
  attr {
    key: "_output_shapes"
    value {
      list {
        shape {
          dim {
            size: 2
          }
        }
      }
    }
  }
  attr {
    key: "dtype"
    value {
      type: DT_INT32
    }
  }
  attr {
    key: "value"
    value {
      tensor {
        dtype: DT_INT32
        tensor_shape {
          dim {
            size: 2
          }
        }
        tensor_content: "\377\377\377\377 \000\000\000"
      }
    }
  }
}
node {
  name: "batch/train/Slice_4"
  op: "Slice"
  input: "batch/train/Reshape_2"
  input: "batch/train/Slice_4/begin"
  input: "batch/train/Slice_4/size"
  device: "/device:CPU:*"
  attr {
    key: "Index"
    value {
      type: DT_INT32
    }
  }
  attr {
    key: "T"
    value {
      type: DT_FLOAT
    }
  }
  attr {
    key: "_output_shapes"
    value {
      list {
        shape {
          dim {
            size: 512
          }
          dim {
            size: 32
          }
        }
      }
    }
  }
}
node {
  name: "batch/train/Slice_5/begin"
  op: "Const"
  device: "/device:CPU:*"
  attr {
    key: "_output_shapes"
    value {
      list {
        shape {
          dim {
            size: 2
          }
        }
      }
    }
  }
  attr {
    key: "dtype"
    value {
      type: DT_INT32
    }
  }
  attr {
    key: "value"
    value {
      tensor {
        dtype: DT_INT32
        tensor_shape {
          dim {
            size: 2
          }
        }
        tensor_content: "\000\000\000\000 \000\000\000"
      }
    }
  }
}
node {
  name: "batch/train/Slice_5/size"
  op: "Const"
  device: "/device:CPU:*"
  attr {
    key: "_output_shapes"
    value {
      list {
        shape {
          dim {
            size: 2
          }
        }
      }
    }
  }
  attr {
    key: "dtype"
    value {
      type: DT_INT32
    }
  }
  attr {
    key: "value"
    value {
      tensor {
        dtype: DT_INT32
        tensor_shape {
          dim {
            size: 2
          }
        }
        tensor_content: "\377\377\377\377 \000\000\000"
      }
    }
  }
}
node {
  name: "batch/train/Slice_5"
  op: "Slice"
  input: "batch/train/Reshape_2"
  input: "batch/train/Slice_5/begin"
  input: "batch/train/Slice_5/size"
  device: "/device:CPU:*"
  attr {
    key: "Index"
    value {
      type: DT_INT32
    }
  }
  attr {
    key: "T"
    value {
      type: DT_FLOAT
    }
  }
  attr {
    key: "_output_shapes"
    value {
      list {
        shape {
          dim {
            size: 512
          }
          dim {
            size: 32
          }
        }
      }
    }
  }
}
node {
  name: "batch/train/imag_2"
  op: "Pack"
  input: "batch/train/Slice_5"
  device: "/device:CPU:*"
  attr {
    key: "N"
    value {
      i: 1
    }
  }
  attr {
    key: "T"
    value {
      type: DT_FLOAT
    }
  }
  attr {
    key: "_output_shapes"
    value {
      list {
        shape {
          dim {
            size: 1
          }
          dim {
            size: 512
          }
          dim {
            size: 32
          }
        }
      }
    }
  }
  attr {
    key: "axis"
    value {
      i: 0
    }
  }
}
node {
  name: "batch/train/r"
  op: "Complex"
  input: "batch/train/Slice_4"
  input: "batch/train/imag_2"
  device: "/device:CPU:*"
  attr {
    key: "T"
    value {
      type: DT_FLOAT
    }
  }
  attr {
    key: "Tout"
    value {
      type: DT_COMPLEX64
    }
  }
  attr {
    key: "_output_shapes"
    value {
      list {
        shape {
          dim {
            size: 1
          }
          dim {
            size: 512
          }
          dim {
            size: 32
          }
        }
      }
    }
  }
}
node {
  name: "batch/train/eval/FFT"
  op: "FFT"
  input: "batch/train/h"
  attr {
    key: "_output_shapes"
    value {
      list {
        shape {
          dim {
            size: 1
          }
          dim {
            size: 512
          }
          dim {
            size: 32
          }
        }
      }
    }
  }
}
node {
  name: "batch/train/eval/Conj"
  op: "Conj"
  input: "batch/train/eval/FFT"
  attr {
    key: "T"
    value {
      type: DT_COMPLEX64
    }
  }
  attr {
    key: "_output_shapes"
    value {
      list {
        shape {
          dim {
            size: 1
          }
          dim {
            size: 512
          }
          dim {
            size: 32
          }
        }
      }
    }
  }
}
node {
  name: "batch/train/eval/FFT_1"
  op: "FFT"
  input: "batch/train/t"
  attr {
    key: "_output_shapes"
    value {
      list {
        shape {
          dim {
            size: 1
          }
          dim {
            size: 512
          }
          dim {
            size: 32
          }
        }
      }
    }
  }
}
node {
  name: "batch/train/eval/Mul"
  op: "Mul"
  input: "batch/train/eval/Conj"
  input: "batch/train/eval/FFT_1"
  attr {
    key: "T"
    value {
      type: DT_COMPLEX64
    }
  }
  attr {
    key: "_output_shapes"
    value {
      list {
        shape {
          dim {
            size: 1
          }
          dim {
            size: 512
          }
          dim {
            size: 32
          }
        }
      }
    }
  }
}
node {
  name: "batch/train/eval/IFFT"
  op: "IFFT"
  input: "batch/train/eval/Mul"
  attr {
    key: "_output_shapes"
    value {
      list {
        shape {
          dim {
            size: 1
          }
          dim {
            size: 512
          }
          dim {
            size: 32
          }
        }
      }
    }
  }
}
node {
  name: "batch/train/eval/Mul_1"
  op: "Mul"
  input: "batch/train/r"
  input: "batch/train/eval/IFFT"
  attr {
    key: "T"
    value {
      type: DT_COMPLEX64
    }
  }
  attr {
    key: "_output_shapes"
    value {
      list {
        shape {
          dim {
            size: 1
          }
          dim {
            size: 512
          }
          dim {
            size: 32
          }
        }
      }
    }
  }
}
node {
  name: "batch/train/eval/Real"
  op: "Real"
  input: "batch/train/eval/Mul_1"
  attr {
    key: "T"
    value {
      type: DT_COMPLEX64
    }
  }
  attr {
    key: "Tout"
    value {
      type: DT_FLOAT
    }
  }
  attr {
    key: "_output_shapes"
    value {
      list {
        shape {
          dim {
            size: 1
          }
          dim {
            size: 512
          }
          dim {
            size: 32
          }
        }
      }
    }
  }
}
node {
  name: "batch/train/eval/Imag"
  op: "Imag"
  input: "batch/train/eval/Mul_1"
  attr {
    key: "T"
    value {
      type: DT_COMPLEX64
    }
  }
  attr {
    key: "Tout"
    value {
      type: DT_FLOAT
    }
  }
  attr {
    key: "_output_shapes"
    value {
      list {
        shape {
          dim {
            size: 1
          }
          dim {
            size: 512
          }
          dim {
            size: 32
          }
        }
      }
    }
  }
}
node {
  name: "batch/train/eval/add"
  op: "Add"
  input: "batch/train/eval/Real"
  input: "batch/train/eval/Imag"
  attr {
    key: "T"
    value {
      type: DT_FLOAT
    }
  }
  attr {
    key: "_output_shapes"
    value {
      list {
        shape {
          dim {
            size: 1
          }
          dim {
            size: 512
          }
          dim {
            size: 32
          }
        }
      }
    }
  }
}
node {
  name: "batch/train/eval/Sum/reduction_indices"
  op: "Const"
  attr {
    key: "_output_shapes"
    value {
      list {
        shape {
        }
      }
    }
  }
  attr {
    key: "dtype"
    value {
      type: DT_INT32
    }
  }
  attr {
    key: "value"
    value {
      tensor {
        dtype: DT_INT32
        tensor_shape {
        }
        int_val: 1
      }
    }
  }
}
node {
  name: "batch/train/eval/Sum"
  op: "Sum"
  input: "batch/train/eval/add"
  input: "batch/train/eval/Sum/reduction_indices"
  attr {
    key: "T"
    value {
      type: DT_FLOAT
    }
  }
  attr {
    key: "Tidx"
    value {
      type: DT_INT32
    }
  }
  attr {
    key: "_output_shapes"
    value {
      list {
        shape {
          dim {
            size: 1
          }
          dim {
            size: 1
          }
          dim {
            size: 32
          }
        }
      }
    }
  }
  attr {
    key: "keep_dims"
    value {
      b: true
    }
  }
}
node {
  name: "batch/train/eval/Tanh"
  op: "Tanh"
  input: "batch/train/eval/Sum"
  attr {
    key: "T"
    value {
      type: DT_FLOAT
    }
  }
  attr {
    key: "_output_shapes"
    value {
      list {
        shape {
          dim {
            size: 1
          }
          dim {
            size: 1
          }
          dim {
            size: 32
          }
        }
      }
    }
  }
}
node {
  name: "batch/train/eval/summaries/Const"
  op: "Const"
  attr {
    key: "_output_shapes"
    value {
      list {
        shape {
          dim {
            size: 3
          }
        }
      }
    }
  }
  attr {
    key: "dtype"
    value {
      type: DT_INT32
    }
  }
  attr {
    key: "value"
    value {
      tensor {
        dtype: DT_INT32
        tensor_shape {
          dim {
            size: 3
          }
        }
        tensor_content: "\000\000\000\000\001\000\000\000\002\000\000\000"
      }
    }
  }
}
node {
  name: "batch/train/eval/summaries/Mean"
  op: "Mean"
  input: "batch/train/eval/Tanh"
  input: "batch/train/eval/summaries/Const"
  attr {
    key: "T"
    value {
      type: DT_FLOAT
    }
  }
  attr {
    key: "Tidx"
    value {
      type: DT_INT32
    }
  }
  attr {
    key: "_output_shapes"
    value {
      list {
        shape {
        }
      }
    }
  }
  attr {
    key: "keep_dims"
    value {
      b: false
    }
  }
}
node {
  name: "batch/train/eval/summaries/mean/tags"
  op: "Const"
  attr {
    key: "_output_shapes"
    value {
      list {
        shape {
        }
      }
    }
  }
  attr {
    key: "dtype"
    value {
      type: DT_STRING
    }
  }
  attr {
    key: "value"
    value {
      tensor {
        dtype: DT_STRING
        tensor_shape {
        }
        string_val: "batch/train/eval/summaries/mean"
      }
    }
  }
}
node {
  name: "batch/train/eval/summaries/mean"
  op: "ScalarSummary"
  input: "batch/train/eval/summaries/mean/tags"
  input: "batch/train/eval/summaries/Mean"
  attr {
    key: "T"
    value {
      type: DT_FLOAT
    }
  }
  attr {
    key: "_output_shapes"
    value {
      list {
        shape {
        }
      }
    }
  }
}
node {
  name: "batch/train/eval/summaries/stddev/sub"
  op: "Sub"
  input: "batch/train/eval/Tanh"
  input: "batch/train/eval/summaries/Mean"
  attr {
    key: "T"
    value {
      type: DT_FLOAT
    }
  }
  attr {
    key: "_output_shapes"
    value {
      list {
        shape {
          dim {
            size: 1
          }
          dim {
            size: 1
          }
          dim {
            size: 32
          }
        }
      }
    }
  }
}
node {
  name: "batch/train/eval/summaries/stddev/Square"
  op: "Square"
  input: "batch/train/eval/summaries/stddev/sub"
  attr {
    key: "T"
    value {
      type: DT_FLOAT
    }
  }
  attr {
    key: "_output_shapes"
    value {
      list {
        shape {
          dim {
…
  input: "batch/gradients/batch/train/embedding_lookup_grad/strided_slice/stack"
  input: "batch/gradients/batch/train/embedding_lookup_grad/strided_slice/stack_1"
  input: "batch/gradients/batch/train/embedding_lookup_grad/strided_slice/stack_2"
  attr {
    key: "Index"
    value {
      type: DT_INT32
    }
  }
  attr {
    key: "T"
    value {
      type: DT_INT32
    }
  }
  attr {
    key: "_output_shapes"
    value {
      list {
        shape {
          dim {
            size: 1
          }
        }
      }
    }
  }
  attr {
    key: "begin_mask"
    value {
      i: 0
    }
  }
  attr {
    key: "ellipsis_mask"
    value {
      i: 0
    }
  }
  attr {
    key: "end_mask"
    value {
      i: 1
    }
  }
  attr {
    key: "new_axis_mask"
    value {
      i: 0
    }
  }
  attr {
    key: "shrink_axis_mask"
    value {
      i: 0
    }
  }
}
node {
  name: "batch/gradients/batch/train/embedding_lookup_grad/concat/axis"
  op: "Const"
  attr {
    key: "_output_shapes"
    value {
      list {
        shape {
        }
      }
    }
  }
  attr {
    key: "dtype"
    value {
      type: DT_INT32
    }
  }
  attr {
    key: "value"
    value {
      tensor {
        dtype: DT_INT32
        tensor_shape {
        }
        int_val: 0
      }
    }
  }
}
node {
  name: "batch/gradients/batch/train/embedding_lookup_grad/concat"
  op: "ConcatV2"
  input: "batch/gradients/batch/train/embedding_lookup_grad/ExpandDims"
  input: "batch/gradients/batch/train/embedding_lookup_grad/strided_slice"
  input: "batch/gradients/batch/train/embedding_lookup_grad/concat/axis"
  attr {
    key: "N"
    value {
      i: 2
    }
  }
  attr {
    key: "T"
    value {
      type: DT_INT32
    }
  }
  attr {
    key: "Tidx"
    value {
      type: DT_INT32
    }
  }
  attr {
    key: "_output_shapes"
    value {
      list {
        shape {
          dim {
            size: 2
          }
        }
      }
    }
  }
}
node {
  name: "batch/gradients/batch/train/embedding_lookup_grad/Reshape"
  op: "Reshape"
  input: "batch/gradients/AddN_12"
  input: "batch/gradients/batch/train/embedding_lookup_grad/concat"
  attr {
    key: "T"
    value {
      type: DT_FLOAT
    }
  }
  attr {
    key: "Tshape"
    value {
      type: DT_INT32
    }
  }
  attr {
    key: "_output_shapes"
    value {
      list {
        shape {
          dim {
            size: -1
          }
          dim {
            size: -1
          }
        }
      }
    }
  }
}
node {
  name: "batch/gradients/batch/train/embedding_lookup_grad/Reshape_1"
  op: "Reshape"
  input: "batch/train/h_id"
  input: "batch/gradients/batch/train/embedding_lookup_grad/ExpandDims"
  attr {
    key: "T"
    value {
      type: DT_INT32
    }
  }
  attr {
    key: "Tshape"
    value {
      type: DT_INT32
    }
  }
  attr {
    key: "_output_shapes"
    value {
      list {
        shape {
          dim {
            size: 512
          }
        }
      }
    }
  }
}
node {
  name: "batch/gradients/AddN_13"
  op: "AddN"
  input: "batch/gradients/batch/corrupt/embedding_lookup/clip_by_norm/mul_1_grad/tuple/control_dependency"
  input: "batch/gradients/batch/corrupt/embedding_lookup/clip_by_norm/mul_grad/tuple/control_dependency"
  input: "batch/gradients/batch/corrupt/embedding_lookup/clip_by_norm/mul_grad/tuple/control_dependency_1"
  attr {
    key: "N"
    value {
      i: 3
    }
  }
  attr {
    key: "T"
    value {
      type: DT_FLOAT
    }
  }
  attr {
    key: "_class"
    value {
      list {
        s: "loc:@batch/gradients/batch/corrupt/embedding_lookup/clip_by_norm/mul_1_grad/Reshape"
      }
    }
  }
  attr {
    key: "_output_shapes"
    value {
      list {
        shape {
          dim {
            size: 512
          }
          dim {
            size: 1
          }
          dim {
            size: 64
          }
        }
      }
    }
  }
}
node {
  name: "batch/gradients/batch/corrupt/embedding_lookup_grad/Shape"
  op: "Const"
  device: "/device:CPU:*"
  attr {
    key: "_class"
    value {
      list {
        s: "loc:@embeddings"
      }
    }
  }
  attr {
    key: "_output_shapes"
    value {
      list {
        shape {
          dim {
            size: 2
          }
        }
      }
    }
  }
  attr {
    key: "dtype"
    value {
      type: DT_INT32
    }
  }
  attr {
    key: "value"
    value {
      tensor {
        dtype: DT_INT32
        tensor_shape {
          dim {
            size: 2
          }
        }
        tensor_content: "F\214\000\000@\000\000\000"
      }
    }
  }
}
node {
  name: "batch/gradients/batch/corrupt/embedding_lookup_grad/Size"
  op: "Const"
  attr {
    key: "_output_shapes"
    value {
      list {
        shape {
        }
      }
    }
  }
  attr {
    key: "dtype"
    value {
      type: DT_INT32
    }
  }
  attr {
    key: "value"
    value {
      tensor {
        dtype: DT_INT32
        tensor_shape {
        }
        int_val: 512
      }
    }
  }
}
node {
  name: "batch/gradients/batch/corrupt/embedding_lookup_grad/ExpandDims/dim"
  op: "Const"
  attr {
    key: "_output_shapes"
    value {
      list {
        shape {
        }
      }
    }
  }
  attr {
    key: "dtype"
    value {
      type: DT_INT32
    }
  }
  attr {
    key: "value"
    value {
      tensor {
        dtype: DT_INT32
        tensor_shape {
        }
        int_val: 0
      }
    }
  }
}
node {
  name: "batch/gradients/batch/corrupt/embedding_lookup_grad/ExpandDims"
  op: "ExpandDims"
  input: "batch/gradients/batch/corrupt/embedding_lookup_grad/Size"
  input: "batch/gradients/batch/corrupt/embedding_lookup_grad/ExpandDims/dim"
  attr {
    key: "T"
    value {
      type: DT_INT32
    }
  }
  attr {
    key: "Tdim"
    value {
      type: DT_INT32
    }
  }
  attr {
    key: "_output_shapes"
    value {
      list {
        shape {
          dim {
            size: 1
          }
        }
      }
    }
  }
}
node {
  name: "batch/gradients/batch/corrupt/embedding_lookup_grad/strided_slice/stack"
  op: "Const"
  attr {
    key: "_output_shapes"
    value {
      list {
        shape {
          dim {
            size: 1
          }
        }
      }
    }
  }
  attr {
    key: "dtype"
    value {
      type: DT_INT32
    }
  }
  attr {
    key: "value"
    value {
      tensor {
        dtype: DT_INT32
        tensor_shape {
          dim {
            size: 1
          }
        }
        int_val: 1
      }
    }
  }
}
node {
  name: "batch/gradients/batch/corrupt/embedding_lookup_grad/strided_slice/stack_1"
  op: "Const"
  attr {
    key: "_output_shapes"
    value {
      list {
        shape {
          dim {
            size: 1
          }
        }
      }
    }
  }
  attr {
    key: "dtype"
    value {
      type: DT_INT32
    }
  }
  attr {
    key: "value"
    value {
      tensor {
        dtype: DT_INT32
        tensor_shape {
          dim {
            size: 1
          }
        }
        int_val: 0
      }
    }
  }
}
node {
  name: "batch/gradients/batch/corrupt/embedding_lookup_grad/strided_slice/stack_2"
  op: "Const"
  attr {
    key: "_output_shapes"
    value {
      list {
        shape {
          dim {
            size: 1
          }
        }
      }
    }
  }
  attr {
    key: "dtype"
    value {
      type: DT_INT32
    }
  }
  attr {
    key: "value"
    value {
      tensor {
        dtype: DT_INT32
        tensor_shape {
          dim {
            size: 1
          }
        }
        int_val: 1
      }
    }
  }
}
node {
  name: "batch/gradients/batch/corrupt/embedding_lookup_grad/strided_slice"
  op: "StridedSlice"
  input: "batch/gradients/batch/corrupt/embedding_lookup_grad/Shape"
  input: "batch/gradients/batch/corrupt/embedding_lookup_grad/strided_slice/stack"
  input: "batch/gradients/batch/corrupt/embedding_lookup_grad/strided_slice/stack_1"
  input: "batch/gradients/batch/corrupt/embedding_lookup_grad/strided_slice/stack_2"
  attr {
    key: "Index"
    value {
      type: DT_INT32
    }
  }
  attr {
    key: "T"
    value {
      type: DT_INT32
    }
  }
  attr {
    key: "_output_shapes"
    value {
      list {
        shape {
          dim {
            size: 1
          }
        }
      }
    }
  }
  attr {
    key: "begin_mask"
    value {
      i: 0
    }
  }
  attr {
    key: "ellipsis_mask"
    value {
      i: 0
    }
  }
  attr {
    key: "end_mask"
    value {
      i: 1
    }
  }
  attr {
    key: "new_axis_mask"
    value {
      i: 0
    }
  }
  attr {
    key: "shrink_axis_mask"
    value {
      i: 0
    }
  }
}
node {
  name: "batch/gradients/batch/corrupt/embedding_lookup_grad/concat/axis"
  op: "Const"
  attr {
    key: "_output_shapes"
    value {
      list {
        shape {
        }
      }
    }
  }
  attr {
    key: "dtype"
    value {
      type: DT_INT32
    }
  }
  attr {
    key: "value"
    value {
      tensor {
        dtype: DT_INT32
        tensor_shape {
        }
        int_val: 0
      }
    }
  }
}
node {
  name: "batch/gradients/batch/corrupt/embedding_lookup_grad/concat"
  op: "ConcatV2"
  input: "batch/gradients/batch/corrupt/embedding_lookup_grad/ExpandDims"
  input: "batch/gradients/batch/corrupt/embedding_lookup_grad/strided_slice"
  input: "batch/gradients/batch/corrupt/embedding_lookup_grad/concat/axis"
  attr {
    key: "N"
    value {
      i: 2
    }
  }
  attr {
    key: "T"
    value {
      type: DT_INT32
    }
  }
  attr {
    key: "Tidx"
    value {
      type: DT_INT32
    }
  }
  attr {
    key: "_output_shapes"
    value {
      list {
        shape {
          dim {
            size: 2
          }
        }
      }
    }
  }
}
node {
  name: "batch/gradients/batch/corrupt/embedding_lookup_grad/Reshape"
  op: "Reshape"
  input: "batch/gradients/AddN_13"
  input: "batch/gradients/batch/corrupt/embedding_lookup_grad/concat"
  attr {
    key: "T"
    value {
      type: DT_FLOAT
    }
  }
  attr {
    key: "Tshape"
    value {
      type: DT_INT32
    }
  }
  attr {
    key: "_output_shapes"
    value {
      list {
        shape {
          dim {
            size: -1
          }
          dim {
            size: -1
          }
        }
      }
    }
  }
}
node {
  name: "batch/gradients/batch/corrupt/embedding_lookup_grad/Reshape_1"
  op: "Reshape"
  input: "batch/corrupt/h_id"
  input: "batch/gradients/batch/corrupt/embedding_lookup_grad/ExpandDims"
  attr {
    key: "T"
    value {
      type: DT_INT32
    }
  }
  attr {
    key: "Tshape"
    value {
      type: DT_INT32
    }
  }
  attr {
    key: "_output_shapes"
    value {
      list {
        shape {
          dim {
            size: 512
          }
        }
      }
    }
  }
}
node {
  name: "batch/gradients/concat/axis"
  op: "Const"
  attr {
    key: "_output_shapes"
    value {
      list {
        shape {
        }
      }
    }
  }
  attr {
    key: "dtype"
    value {
      type: DT_INT32
    }
  }
  attr {
    key: "value"
    value {
      tensor {
        dtype: DT_INT32
        tensor_shape {
        }
        int_val: 0
      }
    }
  }
}
node {
  name: "batch/gradients/concat"
  op: "ConcatV2"
  input: "batch/gradients/batch/train/embedding_lookup_2_grad/Reshape"
  input: "batch/gradients/batch/corrupt/embedding_lookup_2_grad/Reshape"
  input: "batch/gradients/batch/train/embedding_lookup_1_grad/Reshape"
  input: "batch/gradients/batch/corrupt/embedding_lookup_1_grad/Reshape"
  input: "batch/gradients/batch/train/embedding_lookup_grad/Reshape"
  input: "batch/gradients/batch/corrupt/embedding_lookup_grad/Reshape"
  input: "batch/gradients/concat/axis"
  attr {
    key: "N"
    value {
      i: 6
    }
  }
  attr {
    key: "T"
    value {
      type: DT_FLOAT
    }
  }
  attr {
    key: "Tidx"
    value {
      type: DT_INT32
    }
  }
  attr {
    key: "_output_shapes"
    value {
      list {
        shape {
          dim {
            size: -1
          }
          dim {
            size: -1
          }
        }
      }
    }
  }
}
node {
  name: "batch/gradients/concat_1/axis"
  op: "Const"
  attr {
    key: "_output_shapes"
    value {
      list {
        shape {
        }
      }
    }
  }
  attr {
    key: "dtype"
    value {
      type: DT_INT32
    }
  }
  attr {
    key: "value"
    value {
      tensor {
        dtype: DT_INT32
        tensor_shape {
        }
        int_val: 0
      }
    }
  }
}
node {
  name: "batch/gradients/concat_1"
  op: "ConcatV2"
  input: "batch/gradients/batch/train/embedding_lookup_2_grad/Reshape_1"
  input: "batch/gradients/batch/corrupt/embedding_lookup_2_grad/Reshape_1"
  input: "batch/gradients/batch/train/embedding_lookup_1_grad/Reshape_1"
  input: "batch/gradients/batch/corrupt/embedding_lookup_1_grad/Reshape_1"
  input: "batch/gradients/batch/train/embedding_lookup_grad/Reshape_1"
  input: "batch/gradients/batch/corrupt/embedding_lookup_grad/Reshape_1"
  input: "batch/gradients/concat_1/axis"
  attr {
    key: "N"
    value {
      i: 6
    }
  }
  attr {
    key: "T"
    value {
      type: DT_INT32
    }
  }
  attr {
    key: "Tidx"
    value {
      type: DT_INT32
    }
  }
  attr {
    key: "_output_shapes"
    value {
      list {
        shape {
          dim {
            size: 3072
          }
        }
      }
    }
  }
}
node {
  name: "batch/GradientDescent/update_embeddings/mul"
  op: "Mul"
  input: "batch/gradients/concat"
  input: "batch/InverseTimeDecay"
  device: "/device:CPU:*"
  attr {
    key: "T"
    value {
      type: DT_FLOAT
    }
  }
  attr {
    key: "_class"
    value {
      list {
        s: "loc:@embeddings"
      }
    }
  }
  attr {
    key: "_output_shapes"
    value {
      list {
        shape {
          dim {
            size: -1
          }
          dim {
            size: -1
          }
        }
      }
    }
  }
}
node {
  name: "batch/GradientDescent/update_embeddings/ScatterSub"
  op: "ScatterSub"
  input: "embeddings"
  input: "batch/gradients/concat_1"
  input: "batch/GradientDescent/update_embeddings/mul"
  device: "/device:CPU:*"
  attr {
    key: "T"
    value {
      type: DT_FLOAT
    }
  }
  attr {
    key: "Tindices"
    value {
      type: DT_INT32
    }
  }
  attr {
    key: "_class"
    value {
      list {
        s: "loc:@embeddings"
      }
    }
  }
  attr {
    key: "_output_shapes"
    value {
      list {
        shape {
          dim {
            size: 35910
          }
          dim {
            size: 64
          }
        }
      }
    }
  }
  attr {
    key: "use_locking"
    value {
      b: false
    }
  }
}
node {
  name: "batch/GradientDescent/update"
  op: "NoOp"
  input: "^batch/GradientDescent/update_embeddings/ScatterSub"
  device: "/device:CPU:*"
}
node {
  name: "batch/GradientDescent/value"
  op: "Const"
  input: "^batch/GradientDescent/update"
  attr {
    key: "_class"
    value {
      list {
        s: "loc:@batch/Variable"
      }
    }
  }
  attr {
    key: "_output_shapes"
    value {
      list {
        shape {
        }
      }
    }
  }
  attr {
    key: "dtype"
    value {
      type: DT_INT32
    }
  }
  attr {
    key: "value"
    value {
      tensor {
        dtype: DT_INT32
        tensor_shape {
        }
        int_val: 1
      }
    }
  }
}
node {
  name: "batch/GradientDescent"
  op: "AssignAdd"
  input: "batch/Variable"
  input: "batch/GradientDescent/value"
  attr {
    key: "T"
    value {
      type: DT_INT32
    }
  }
  attr {
    key: "_class"
    value {
      list {
        s: "loc:@batch/Variable"
      }
    }
  }
  attr {
    key: "_output_shapes"
    value {
      list {
        shape {
        }
      }
    }
  }
  attr {
    key: "use_locking"
    value {
      b: false
    }
  }
}
node {
  name: "Merge/MergeSummary"
  op: "MergeSummary"
  input: "input/input_producer/fraction_of_32_full"
  input: "batch/shuffle_batch/fraction_over_396479_of_396479_full"
  input: "batch/train/eval/summaries/mean"
  input: "batch/train/eval/summaries/stddev_1"
  input: "batch/train/eval/summaries/max"
  input: "batch/train/eval/summaries/min"
  input: "batch/train/eval/summaries/histogram"
  input: "batch/corrupt/eval/summaries/mean"
  input: "batch/corrupt/eval/summaries/stddev_1"
  input: "batch/corrupt/eval/summaries/max"
  input: "batch/corrupt/eval/summaries/min"
  input: "batch/corrupt/eval/summaries/histogram"
  input: "batch/summaries/mean"
  input: "batch/summaries/stddev_1"
  input: "batch/summaries/max"
  input: "batch/summaries/min"
  input: "batch/summaries/histogram"
  input: "batch/learning_rate"
  attr {
    key: "N"
    value {
      i: 18
    }
  }
  attr {
    key: "_output_shapes"
    value {
      list {
        shape {
        }
      }
    }
  }
}
node {
  name: "init/NoOp"
  op: "NoOp"
  input: "^batch/Variable/Assign"
}
node {
  name: "init/NoOp_1"
  op: "NoOp"
  input: "^embeddings/Assign"
  device: "/device:CPU:*"
}
node {
  name: "init"
  op: "NoOp"
  input: "^init/NoOp"
  input: "^init/NoOp_1"
}
node {
  name: "save/Const"
  op: "Const"
  attr {
    key: "_output_shapes"
    value {
      list {
        shape {
        }
      }
    }
  }
  attr {
    key: "dtype"
    value {
      type: DT_STRING
    }
  }
  attr {
    key: "value"
    value {
      tensor {
        dtype: DT_STRING
        tensor_shape {
        }
        string_val: "model"
      }
    }
  }
}
node {
  name: "save/SaveV2/tensor_names"
  op: "Const"
  attr {
    key: "_output_shapes"
    value {
      list {
        shape {
          dim {
            size: 1
          }
        }
      }
    }
  }
  attr {
    key: "dtype"
    value {
      type: DT_STRING
    }
  }
  attr {
    key: "value"
    value {
      tensor {
        dtype: DT_STRING
        tensor_shape {
          dim {
            size: 1
          }
        }
        string_val: "embeddings"
      }
    }
  }
}
node {
  name: "save/SaveV2/shape_and_slices"
  op: "Const"
  attr {
    key: "_output_shapes"
    value {
      list {
        shape {
          dim {
            size: 1
          }
        }
      }
    }
  }
  attr {
    key: "dtype"
    value {
      type: DT_STRING
    }
  }
  attr {
    key: "value"
    value {
      tensor {
        dtype: DT_STRING
        tensor_shape {
          dim {
            size: 1
          }
        }
        string_val: ""
      }
    }
  }
}
node {
  name: "save/SaveV2"
  op: "SaveV2"
  input: "save/Const"
  input: "save/SaveV2/tensor_names"
  input: "save/SaveV2/shape_and_slices"
  input: "embeddings"
  attr {
    key: "dtypes"
    value {
      list {
        type: DT_FLOAT
      }
    }
  }
}
node {
  name: "save/control_dependency"
  op: "Identity"
  input: "save/Const"
  input: "^save/SaveV2"
  attr {
    key: "T"
    value {
      type: DT_STRING
    }
  }
  attr {
    key: "_class"
    value {
      list {
        s: "loc:@save/Const"
      }
    }
  }
  attr {
    key: "_output_shapes"
    value {
      list {
        shape {
        }
      }
    }
  }
}
node {
  name: "save/RestoreV2/tensor_names"
  op: "Const"
  device: "/device:CPU:0"
  attr {
    key: "_output_shapes"
    value {
      list {
        shape {
          dim {
            size: 1
          }
        }
      }
    }
  }
  attr {
    key: "dtype"
    value {
      type: DT_STRING
    }
  }
  attr {
    key: "value"
    value {
      tensor {
        dtype: DT_STRING
        tensor_shape {
          dim {
            size: 1
          }
        }
        string_val: "embeddings"
      }
    }
  }
}
node {
  name: "save/RestoreV2/shape_and_slices"
  op: "Const"
  device: "/device:CPU:0"
  attr {
    key: "_output_shapes"
    value {
      list {
        shape {
          dim {
            size: 1
          }
        }
      }
    }
  }
  attr {
    key: "dtype"
    value {
      type: DT_STRING
    }
  }
  attr {
    key: "value"
    value {
      tensor {
        dtype: DT_STRING
        tensor_shape {
          dim {
            size: 1
          }
        }
        string_val: ""
      }
    }
  }
}
node {
  name: "save/RestoreV2"
  op: "RestoreV2"
  input: "save/Const"
  input: "save/RestoreV2/tensor_names"
  input: "save/RestoreV2/shape_and_slices"
  device: "/device:CPU:0"
  attr {
    key: "_output_shapes"
    value {
      list {
        shape {
          unknown_rank: true
        }
      }
    }
  }
  attr {
    key: "dtypes"
    value {
      list {
        type: DT_FLOAT
      }
    }
  }
}
node {
  name: "save/Assign"
  op: "Assign"
  input: "embeddings"
  input: "save/RestoreV2"
  device: "/device:CPU:*"
  attr {
    key: "T"
    value {
      type: DT_FLOAT
    }
  }
  attr {
    key: "_class"
    value {
      list {
        s: "loc:@embeddings"
      }
    }
  }
  attr {
    key: "_output_shapes"
    value {
      list {
        shape {
          dim {
            size: 35910
          }
          dim {
            size: 64
          }
        }
      }
    }
  }
  attr {
    key: "use_locking"
    value {
      b: true
    }
  }
  attr {
    key: "validate_shape"
    value {
      b: true
    }
  }
}
node {
  name: "save/restore_all"
  op: "NoOp"
  input: "^save/Assign"
  device: "/device:CPU:*"
}
node {
  name: "report_uninitialized_variables/IsVariableInitialized"
  op: "IsVariableInitialized"
  input: "embeddings"
  device: "/device:CPU:*"
  attr {
    key: "_class"
    value {
      list {
        s: "loc:@embeddings"
      }
    }
  }
  attr {
    key: "_output_shapes"
    value {
      list {
        shape {
        }
      }
    }
  }
  attr {
    key: "dtype"
    value {
      type: DT_FLOAT
    }
  }
}
node {
  name: "report_uninitialized_variables/IsVariableInitialized_1"
  op: "IsVariableInitialized"
  input: "batch/Variable"
  attr {
    key: "_class"
    value {
      list {
        s: "loc:@batch/Variable"
      }
    }
  }
  attr {
    key: "_output_shapes"
    value {
      list {
        shape {
        }
      }
    }
  }
  attr {
    key: "dtype"
    value {
      type: DT_INT32
    }
  }
}
node {
  name: "report_uninitialized_variables/stack"
  op: "Pack"
  input: "report_uninitialized_variables/IsVariableInitialized"
  input: "report_uninitialized_variables/IsVariableInitialized_1"
  attr {
    key: "N"
    value {
      i: 2
    }
  }
  attr {
    key: "T"
    value {
      type: DT_BOOL
    }
  }
  attr {
    key: "_output_shapes"
    value {
      list {
        shape {
          dim {
            size: 2
          }
        }
      }
    }
  }
  attr {
    key: "axis"
    value {
      i: 0
    }
  }
}
node {
  name: "report_uninitialized_variables/LogicalNot"
  op: "LogicalNot"
  input: "report_uninitialized_variables/stack"
  attr {
    key: "_output_shapes"
    value {
      list {
        shape {
          dim {
            size: 2
          }
        }
      }
    }
  }
}
node {
  name: "report_uninitialized_variables/Const"
  op: "Const"
  attr {
    key: "_output_shapes"
    value {
      list {
        shape {
          dim {
            size: 2
          }
        }
      }
    }
  }
  attr {
    key: "dtype"
    value {
      type: DT_STRING
    }
  }
  attr {
    key: "value"
    value {
      tensor {
        dtype: DT_STRING
        tensor_shape {
          dim {
            size: 2
          }
        }
        string_val: "embeddings"
        string_val: "batch/Variable"
      }
    }
  }
}
node {
  name: "report_uninitialized_variables/boolean_mask/Shape"
  op: "Const"
  attr {
    key: "_output_shapes"
    value {
      list {
        shape {
          dim {
            size: 1
          }
        }
      }
    }
  }
  attr {
    key: "dtype"
    value {
      type: DT_INT32
    }
  }
  attr {
    key: "value"
    value {
      tensor {
        dtype: DT_INT32
        tensor_shape {
          dim {
            size: 1
          }
        }
        int_val: 2
      }
    }
  }
}
node {
  name: "report_uninitialized_variables/boolean_mask/strided_slice/stack"
  op: "Const"
  attr {
    key: "_output_shapes"
    value {
      list {
        shape {
          dim {
            size: 1
          }
        }
      }
    }
  }
  attr {
    key: "dtype"
    value {
      type: DT_INT32
    }
  }
  attr {
    key: "value"
    value {
      tensor {
        dtype: DT_INT32
        tensor_shape {
          dim {
            size: 1
          }
        }
        int_val: 0
      }
    }
  }
}
node {
  name: "report_uninitialized_variables/boolean_mask/strided_slice/stack_1"
  op: "Const"
  attr {
    key: "_output_shapes"
    value {
      list {
        shape {
          dim {
            size: 1
          }
        }
      }
    }
  }
  attr {
    key: "dtype"
    value {
      type: DT_INT32
    }
  }
  attr {
    key: "value"
    value {
      tensor {
        dtype: DT_INT32
        tensor_shape {
          dim {
            size: 1
          }
        }
        int_val: 1
      }
    }
  }
}
node {
  name: "report_uninitialized_variables/boolean_mask/strided_slice/stack_2"
  op: "Const"
  attr {
    key: "_output_shapes"
    value {
      list {
        shape {
          dim {
            size: 1
          }
        }
      }
    }
  }
  attr {
    key: "dtype"
    value {
      type: DT_INT32
    }
  }
  attr {
    key: "value"
    value {
      tensor {
        dtype: DT_INT32
        tensor_shape {
          dim {
            size: 1
          }
        }
        int_val: 1
      }
    }
  }
}
node {
  name: "report_uninitialized_variables/boolean_mask/strided_slice"
  op: "StridedSlice"
  input: "report_uninitialized_variables/boolean_mask/Shape"
  input: "report_uninitialized_variables/boolean_mask/strided_slice/stack"
  input: "report_uninitialized_variables/boolean_mask/strided_slice/stack_1"
  input: "report_uninitialized_variables/boolean_mask/strided_slice/stack_2"
  attr {
    key: "Index"
    value {
      type: DT_INT32
    }
  }
  attr {
    key: "T"
    value {
      type: DT_INT32
    }
  }
  attr {
    key: "_output_shapes"
    value {
      list {
        shape {
          dim {
            size: 1
          }
        }
      }
    }
  }
  attr {
    key: "begin_mask"
    value {
      i: 1
    }
  }
  attr {
    key: "ellipsis_mask"
    value {
      i: 0
    }
  }
  attr {
    key: "end_mask"
    value {
      i: 0
    }
  }
  attr {
    key: "new_axis_mask"
    value {
      i: 0
    }
  }
  attr {
    key: "shrink_axis_mask"
    value {
      i: 0
    }
  }
}
node {
  name: "report_uninitialized_variables/boolean_mask/Prod/reduction_indices"
  op: "Const"
  attr {
    key: "_output_shapes"
    value {
      list {
        shape {
          dim {
            size: 1
          }
        }
      }
    }
  }
  attr {
    key: "dtype"
    value {
      type: DT_INT32
    }
  }
  attr {
    key: "value"
    value {
      tensor {
        dtype: DT_INT32
        tensor_shape {
          dim {
            size: 1
          }
        }
        int_val: 0
      }
    }
  }
}
node {
  name: "report_uninitialized_variables/boolean_mask/Prod"
  op: "Prod"
  input: "report_uninitialized_variables/boolean_mask/strided_slice"
  input: "report_uninitialized_variables/boolean_mask/Prod/reduction_indices"
  attr {
    key: "T"
    value {
      type: DT_INT32
    }
  }
  attr {
    key: "Tidx"
    value {
      type: DT_INT32
    }
  }
  attr {
    key: "_output_shapes"
    value {
      list {
        shape {
        }
      }
    }
  }
  attr {
    key: "keep_dims"
    value {
      b: false
    }
  }
}
node {
  name: "report_uninitialized_variables/boolean_mask/Shape_1"
  op: "Const"
  attr {
    key: "_output_shapes"
    value {
      list {
        shape {
          dim {
            size: 1
          }
        }
      }
    }
  }
  attr {
    key: "dtype"
    value {
      type: DT_INT32
    }
  }
  attr {
    key: "value"
    value {
      tensor {
        dtype: DT_INT32
        tensor_shape {
          dim {
            size: 1
          }
        }
        int_val: 2
      }
    }
  }
}
node {
  name: "report_uninitialized_variables/boolean_mask/strided_slice_1/stack"
  op: "Const"
  attr {
    key: "_output_shapes"
    value {
      list {
        shape {
          dim {
            size: 1
          }
        }
      }
    }
  }
  attr {
    key: "dtype"
    value {
      type: DT_INT32
    }
  }
  attr {
    key: "value"
    value {
      tensor {
        dtype: DT_INT32
        tensor_shape {
          dim {
            size: 1
          }
        }
        int_val: 1
      }
    }
  }
}
node {
  name: "report_uninitialized_variables/boolean_mask/strided_slice_1/stack_1"
  op: "Const"
  attr {
    key: "_output_shapes"
    value {
      list {
        shape {
          dim {
            size: 1
          }
        }
      }
    }
  }
  attr {
    key: "dtype"
    value {
      type: DT_INT32
    }
  }
  attr {
    key: "value"
    value {
      tensor {
        dtype: DT_INT32
        tensor_shape {
          dim {
            size: 1
          }
        }
        int_val: 0
      }
    }
  }
}
node {
  name: "report_uninitialized_variables/boolean_mask/strided_slice_1/stack_2"
  op: "Const"
  attr {
    key: "_output_shapes"
    value {
      list {
        shape {
          dim {
            size: 1
          }
        }
      }
    }
  }
  attr {
    key: "dtype"
    value {
      type: DT_INT32
    }
  }
  attr {
    key: "value"
    value {
      tensor {
        dtype: DT_INT32
        tensor_shape {
          dim {
            size: 1
          }
        }
        int_val: 1
      }
    }
  }
}
node {
  name: "report_uninitialized_variables/boolean_mask/strided_slice_1"
  op: "StridedSlice"
  input: "report_uninitialized_variables/boolean_mask/Shape_1"
  input: "report_uninitialized_variables/boolean_mask/strided_slice_1/stack"
  input: "report_uninitialized_variables/boolean_mask/strided_slice_1/stack_1"
  input: "report_uninitialized_variables/boolean_mask/strided_slice_1/stack_2"
  attr {
    key: "Index"
    value {
      type: DT_INT32
    }
  }
  attr {
    key: "T"
    value {
      type: DT_INT32
    }
  }
  attr {
    key: "_output_shapes"
    value {
      list {
        shape {
          dim {
          }
        }
      }
    }
  }
  attr {
    key: "begin_mask"
    value {
      i: 0
    }
  }
  attr {
    key: "ellipsis_mask"
    value {
      i: 0
    }
  }
  attr {
    key: "end_mask"
    value {
      i: 1
    }
  }
  attr {
    key: "new_axis_mask"
    value {
      i: 0
    }
  }
  attr {
    key: "shrink_axis_mask"
    value {
      i: 0
    }
  }
}
node {
  name: "report_uninitialized_variables/boolean_mask/concat/values_0"
  op: "Pack"
  input: "report_uninitialized_variables/boolean_mask/Prod"
  attr {
    key: "N"
    value {
      i: 1
    }
  }
  attr {
    key: "T"
    value {
      type: DT_INT32
    }
  }
  attr {
    key: "_output_shapes"
    value {
      list {
        shape {
          dim {
            size: 1
          }
        }
      }
    }
  }
  attr {
    key: "axis"
    value {
      i: 0
    }
  }
}
node {
  name: "report_uninitialized_variables/boolean_mask/concat/axis"
  op: "Const"
  attr {
    key: "_output_shapes"
    value {
      list {
        shape {
        }
      }
    }
  }
  attr {
    key: "dtype"
    value {
      type: DT_INT32
    }
  }
  attr {
    key: "value"
    value {
      tensor {
        dtype: DT_INT32
        tensor_shape {
        }
        int_val: 0
      }
    }
  }
}
node {
  name: "report_uninitialized_variables/boolean_mask/concat"
  op: "ConcatV2"
  input: "report_uninitialized_variables/boolean_mask/concat/values_0"
  input: "report_uninitialized_variables/boolean_mask/strided_slice_1"
  input: "report_uninitialized_variables/boolean_mask/concat/axis"
  attr {
    key: "N"
    value {
      i: 2
    }
  }
  attr {
    key: "T"
    value {
      type: DT_INT32
    }
  }
  attr {
    key: "Tidx"
    value {
      type: DT_INT32
    }
  }
  attr {
    key: "_output_shapes"
    value {
      list {
        shape {
          dim {
            size: 1
          }
        }
      }
    }
  }
}
node {
  name: "report_uninitialized_variables/boolean_mask/Reshape"
  op: "Reshape"
  input: "report_uninitialized_variables/Const"
  input: "report_uninitialized_variables/boolean_mask/concat"
  attr {
    key: "T"
    value {
      type: DT_STRING
    }
  }
  attr {
    key: "Tshape"
    value {
      type: DT_INT32
    }
  }
  attr {
    key: "_output_shapes"
    value {
      list {
        shape {
          dim {
            size: 2
          }
        }
      }
    }
  }
}
node {
  name: "report_uninitialized_variables/boolean_mask/Reshape_1/shape"
  op: "Const"
  attr {
    key: "_output_shapes"
    value {
      list {
        shape {
          dim {
            size: 1
          }
        }
      }
    }
  }
  attr {
    key: "dtype"
    value {
      type: DT_INT32
    }
  }
  attr {
    key: "value"
    value {
      tensor {
        dtype: DT_INT32
        tensor_shape {
          dim {
            size: 1
          }
        }
        int_val: -1
      }
    }
  }
}
node {
  name: "report_uninitialized_variables/boolean_mask/Reshape_1"
  op: "Reshape"
  input: "report_uninitialized_variables/LogicalNot"
  input: "report_uninitialized_variables/boolean_mask/Reshape_1/shape"
  attr {
    key: "T"
    value {
      type: DT_BOOL
    }
  }
  attr {
    key: "Tshape"
    value {
      type: DT_INT32
    }
  }
  attr {
    key: "_output_shapes"
    value {
      list {
        shape {
          dim {
            size: 2
          }
        }
      }
    }
  }
}
node {
  name: "report_uninitialized_variables/boolean_mask/Where"
  op: "Where"
  input: "report_uninitialized_variables/boolean_mask/Reshape_1"
  attr {
    key: "_output_shapes"
    value {
      list {
        shape {
          dim {
            size: -1
          }
          dim {
            size: 1
          }
        }
      }
    }
  }
}
node {
  name: "report_uninitialized_variables/boolean_mask/Squeeze"
  op: "Squeeze"
  input: "report_uninitialized_variables/boolean_mask/Where"
  attr {
    key: "T"
    value {
      type: DT_INT64
    }
  }
  attr {
    key: "_output_shapes"
    value {
      list {
        shape {
          dim {
            size: -1
          }
        }
      }
    }
  }
  attr {
    key: "squeeze_dims"
    value {
      list {
        i: 1
      }
    }
  }
}
node {
  name: "report_uninitialized_variables/boolean_mask/Gather"
  op: "Gather"
  input: "report_uninitialized_variables/boolean_mask/Reshape"
  input: "report_uninitialized_variables/boolean_mask/Squeeze"
  attr {
    key: "Tindices"
    value {
      type: DT_INT64
    }
  }
  attr {
    key: "Tparams"
    value {
      type: DT_STRING
    }
  }
  attr {
    key: "_output_shapes"
    value {
      list {
        shape {
          dim {
            size: -1
          }
        }
      }
    }
  }
  attr {
    key: "validate_indices"
    value {
      b: true
    }
  }
}
node {
  name: "init_1/NoOp"
  op: "NoOp"
  input: "^batch/Variable/Assign"
}
node {
  name: "init_1/NoOp_1"
  op: "NoOp"
  input: "^embeddings/Assign"
  device: "/device:CPU:*"
}
node {
  name: "init_1"
  op: "NoOp"
  input: "^init_1/NoOp"
  input: "^init_1/NoOp_1"
}
node {
  name: "init_2"
  op: "NoOp"
}
node {
  name: "init_all_tables"
  op: "NoOp"
}
node {
  name: "group_deps"
  op: "NoOp"
  input: "^init_2"
  input: "^init_all_tables"
}
node {
  name: "save_1/Const"
  op: "Const"
  attr {
    key: "_output_shapes"
    value {
      list {
        shape {
        }
      }
    }
  }
  attr {
    key: "dtype"
    value {
      type: DT_STRING
    }
  }
  attr {
    key: "value"
    value {
      tensor {
        dtype: DT_STRING
        tensor_shape {
        }
        string_val: "model"
      }
    }
  }
}
node {
  name: "save_1/SaveV2/tensor_names"
  op: "Const"
  attr {
    key: "_output_shapes"
    value {
      list {
        shape {
          dim {
            size: 6
          }
        }
      }
    }
  }
  attr {
    key: "dtype"
    value {
      type: DT_STRING
    }
  }
  attr {
    key: "value"
    value {
      tensor {
        dtype: DT_STRING
        tensor_shape {
          dim {
            size: 6
          }
        }
        string_val: "batch/Variable"
        string_val: "embeddings"
        string_val: "id_to_type-keys"
        string_val: "id_to_type-values"
        string_val: "type_to_ids-keys"
        string_val: "type_to_ids-values"
      }
    }
  }
}
node {
  name: "save_1/SaveV2/shape_and_slices"
  op: "Const"
  attr {
    key: "_output_shapes"
    value {
      list {
        shape {
          dim {
            size: 6
          }
        }
      }
    }
  }
  attr {
    key: "dtype"
    value {
      type: DT_STRING
    }
  }
  attr {
    key: "value"
    value {
      tensor {
        dtype: DT_STRING
        tensor_shape {
          dim {
            size: 6
          }
        }
        string_val: ""
        string_val: ""
        string_val: ""
        string_val: ""
        string_val: ""
        string_val: ""
      }
    }
  }
}
node {
  name: "save_1/SaveV2"
  op: "SaveV2"
  input: "save_1/Const"
  input: "save_1/SaveV2/tensor_names"
  input: "save_1/SaveV2/shape_and_slices"
  input: "batch/Variable"
  input: "embeddings"
  input: "tables/id_to_type/id_to_type_lookup_table_export_values"
  input: "tables/id_to_type/id_to_type_lookup_table_export_values:1"
  input: "tables/type_to_ids/type_to_ids_lookup_table_export_values"
  input: "tables/type_to_ids/type_to_ids_lookup_table_export_values:1"
  attr {
    key: "dtypes"
    value {
      list {
        type: DT_INT32
        type: DT_FLOAT
        type: DT_INT64
        type: DT_STRING
        type: DT_STRING
        type: DT_INT64
      }
    }
  }
}
node {
  name: "save_1/control_dependency"
  op: "Identity"
  input: "save_1/Const"
  input: "^save_1/SaveV2"
  attr {
    key: "T"
    value {
      type: DT_STRING
    }
  }
  attr {
    key: "_class"
    value {
      list {
        s: "loc:@save_1/Const"
      }
    }
  }
  attr {
    key: "_output_shapes"
    value {
      list {
        shape {
        }
      }
    }
  }
}
node {
  name: "save_1/RestoreV2/tensor_names"
  op: "Const"
  attr {
    key: "_output_shapes"
    value {
      list {
        shape {
          dim {
            size: 1
          }
        }
      }
    }
  }
  attr {
    key: "dtype"
    value {
      type: DT_STRING
    }
  }
  attr {
    key: "value"
    value {
      tensor {
        dtype: DT_STRING
        tensor_shape {
          dim {
            size: 1
          }
        }
        string_val: "batch/Variable"
      }
    }
  }
}
node {
  name: "save_1/RestoreV2/shape_and_slices"
  op: "Const"
  attr {
    key: "_output_shapes"
    value {
      list {
        shape {
          dim {
            size: 1
          }
        }
      }
    }
  }
  attr {
    key: "dtype"
    value {
      type: DT_STRING
    }
  }
  attr {
    key: "value"
    value {
      tensor {
        dtype: DT_STRING
        tensor_shape {
          dim {
            size: 1
          }
        }
        string_val: ""
      }
    }
  }
}
node {
  name: "save_1/RestoreV2"
  op: "RestoreV2"
  input: "save_1/Const"
  input: "save_1/RestoreV2/tensor_names"
  input: "save_1/RestoreV2/shape_and_slices"
  attr {
    key: "_output_shapes"
    value {
      list {
        shape {
          unknown_rank: true
        }
      }
    }
  }
  attr {
    key: "dtypes"
    value {
      list {
        type: DT_INT32
      }
    }
  }
}
node {
  name: "save_1/Assign"
  op: "Assign"
  input: "batch/Variable"
  input: "save_1/RestoreV2"
  attr {
    key: "T"
    value {
      type: DT_INT32
    }
  }
  attr {
    key: "_class"
    value {
      list {
        s: "loc:@batch/Variable"
      }
    }
  }
  attr {
    key: "_output_shapes"
    value {
      list {
        shape {
        }
      }
    }
  }
  attr {
    key: "use_locking"
    value {
      b: true
    }
  }
  attr {
    key: "validate_shape"
    value {
      b: true
    }
  }
}
node {
  name: "save_1/RestoreV2_1/tensor_names"
  op: "Const"
  device: "/device:CPU:0"
  attr {
    key: "_output_shapes"
    value {
      list {
        shape {
          dim {
            size: 1
          }
        }
      }
    }
  }
  attr {
    key: "dtype"
    value {
      type: DT_STRING
    }
  }
  attr {
    key: "value"
    value {
      tensor {
        dtype: DT_STRING
        tensor_shape {
          dim {
            size: 1
          }
        }
        string_val: "embeddings"
      }
    }
  }
}
node {
  name: "save_1/RestoreV2_1/shape_and_slices"
  op: "Const"
  device: "/device:CPU:0"
  attr {
    key: "_output_shapes"
    value {
      list {
        shape {
          dim {
            size: 1
          }
        }
      }
    }
  }
  attr {
    key: "dtype"
    value {
      type: DT_STRING
    }
  }
  attr {
    key: "value"
    value {
      tensor {
        dtype: DT_STRING
        tensor_shape {
          dim {
            size: 1
          }
        }
        string_val: ""
      }
    }
  }
}
node {
  name: "save_1/RestoreV2_1"
  op: "RestoreV2"
  input: "save_1/Const"
  input: "save_1/RestoreV2_1/tensor_names"
  input: "save_1/RestoreV2_1/shape_and_slices"
  device: "/device:CPU:0"
  attr {
    key: "_output_shapes"
    value {
      list {
        shape {
          unknown_rank: true
        }
      }
    }
  }
  attr {
    key: "dtypes"
    value {
      list {
        type: DT_FLOAT
      }
    }
  }
}
node {
  name: "save_1/Assign_1"
  op: "Assign"
  input: "embeddings"
  input: "save_1/RestoreV2_1"
  device: "/device:CPU:*"
  attr {
    key: "T"
    value {
      type: DT_FLOAT
    }
  }
  attr {
    key: "_class"
    value {
      list {
        s: "loc:@embeddings"
      }
    }
  }
  attr {
    key: "_output_shapes"
    value {
      list {
        shape {
          dim {
            size: 35910
          }
          dim {
            size: 64
          }
        }
      }
    }
  }
  attr {
    key: "use_locking"
    value {
      b: true
    }
  }
  attr {
    key: "validate_shape"
    value {
      b: true
    }
  }
}
node {
  name: "save_1/RestoreV2_2/tensor_names"
  op: "Const"
  device: "/device:CPU:0"
  attr {
    key: "_output_shapes"
    value {
      list {
        shape {
          dim {
            size: 1
          }
        }
      }
    }
  }
  attr {
    key: "dtype"
    value {
      type: DT_STRING
    }
  }
  attr {
    key: "value"
    value {
      tensor {
        dtype: DT_STRING
        tensor_shape {
          dim {
            size: 1
          }
        }
        string_val: "id_to_type-keys"
      }
    }
  }
}
node {
  name: "save_1/RestoreV2_2/shape_and_slices"
  op: "Const"
  device: "/device:CPU:0"
  attr {
    key: "_output_shapes"
    value {
      list {
        shape {
          dim {
            size: 1
          }
        }
      }
    }
  }
  attr {
    key: "dtype"
    value {
      type: DT_STRING
    }
  }
  attr {
    key: "value"
    value {
      tensor {
        dtype: DT_STRING
        tensor_shape {
          dim {
            size: 1
          }
        }
        string_val: ""
      }
    }
  }
}
node {
  name: "save_1/RestoreV2_2"
  op: "RestoreV2"
  input: "save_1/Const"
  input: "save_1/RestoreV2_2/tensor_names"
  input: "save_1/RestoreV2_2/shape_and_slices"
  device: "/device:CPU:0"
  attr {
    key: "_output_shapes"
    value {
      list {
        shape {
          unknown_rank: true
        }
      }
    }
  }
  attr {
    key: "dtypes"
    value {
      list {
        type: DT_INT64
      }
    }
  }
}
node {
  name: "save_1/RestoreV2_3/tensor_names"
  op: "Const"
  device: "/device:CPU:0"
  attr {
    key: "_output_shapes"
    value {
      list {
        shape {
          dim {
            size: 1
          }
        }
      }
    }
  }
  attr {
    key: "dtype"
    value {
      type: DT_STRING
    }
  }
  attr {
    key: "value"
    value {
      tensor {
        dtype: DT_STRING
        tensor_shape {
          dim {
            size: 1
          }
        }
        string_val: "id_to_type-values"
      }
    }
  }
}
node {
  name: "save_1/RestoreV2_3/shape_and_slices"
  op: "Const"
  device: "/device:CPU:0"
  attr {
    key: "_output_shapes"
    value {
      list {
        shape {
          dim {
            size: 1
          }
        }
      }
    }
  }
  attr {
    key: "dtype"
    value {
      type: DT_STRING
    }
  }
  attr {
    key: "value"
    value {
      tensor {
        dtype: DT_STRING
        tensor_shape {
          dim {
            size: 1
          }
        }
        string_val: ""
      }
    }
  }
}
node {
  name: "save_1/RestoreV2_3"
  op: "RestoreV2"
  input: "save_1/Const"
  input: "save_1/RestoreV2_3/tensor_names"
  input: "save_1/RestoreV2_3/shape_and_slices"
  device: "/device:CPU:0"
  attr {
    key: "_output_shapes"
    value {
      list {
        shape {
          unknown_rank: true
        }
      }
    }
  }
  attr {
    key: "dtypes"
    value {
      list {
        type: DT_STRING
      }
    }
  }
}
node {
  name: "save_1/LookupTableImport"
  op: "LookupTableImport"
  input: "tables/id_to_type/id_to_type"
  input: "save_1/RestoreV2_2"
  input: "save_1/RestoreV2_3"
  device: "/device:CPU:*"
  attr {
    key: "Tin"
    value {
      type: DT_INT64
    }
  }
  attr {
    key: "Tout"
    value {
      type: DT_STRING
    }
  }
  attr {
    key: "_class"
    value {
      list {
        s: "loc:@tables/id_to_type/id_to_type"
      }
    }
  }
}
node {
  name: "save_1/RestoreV2_4/tensor_names"
  op: "Const"
  device: "/device:CPU:0"
  attr {
    key: "_output_shapes"
    value {
      list {
        shape {
          dim {
            size: 1
          }
        }
      }
    }
  }
  attr {
    key: "dtype"
    value {
      type: DT_STRING
    }
  }
  attr {
    key: "value"
    value {
      tensor {
        dtype: DT_STRING
        tensor_shape {
          dim {
            size: 1
          }
        }
        string_val: "type_to_ids-keys"
      }
    }
  }
}
node {
  name: "save_1/RestoreV2_4/shape_and_slices"
  op: "Const"
  device: "/device:CPU:0"
  attr {
    key: "_output_shapes"
    value {
      list {
        shape {
          dim {
            size: 1
          }
        }
      }
    }
  }
  attr {
    key: "dtype"
    value {
      type: DT_STRING
    }
  }
  attr {
    key: "value"
    value {
      tensor {
        dtype: DT_STRING
        tensor_shape {
          dim {
            size: 1
          }
        }
        string_val: ""
      }
    }
  }
}
node {
  name: "save_1/RestoreV2_4"
  op: "RestoreV2"
  input: "save_1/Const"
  input: "save_1/RestoreV2_4/tensor_names"
  input: "save_1/RestoreV2_4/shape_and_slices"
  device: "/device:CPU:0"
  attr {
    key: "_output_shapes"
    value {
      list {
        shape {
          unknown_rank: true
        }
      }
    }
  }
  attr {
    key: "dtypes"
    value {
      list {
        type: DT_STRING
      }
    }
  }
}
node {
  name: "save_1/RestoreV2_5/tensor_names"
  op: "Const"
  device: "/device:CPU:0"
  attr {
    key: "_output_shapes"
    value {
      list {
        shape {
          dim {
            size: 1
          }
        }
      }
    }
  }
  attr {
    key: "dtype"
    value {
      type: DT_STRING
    }
  }
  attr {
    key: "value"
    value {
      tensor {
        dtype: DT_STRING
        tensor_shape {
          dim {
            size: 1
          }
        }
        string_val: "type_to_ids-values"
      }
    }
  }
}
node {
  name: "save_1/RestoreV2_5/shape_and_slices"
  op: "Const"
  device: "/device:CPU:0"
  attr {
    key: "_output_shapes"
    value {
      list {
        shape {
          dim {
            size: 1
          }
        }
      }
    }
  }
  attr {
    key: "dtype"
    value {
      type: DT_STRING
    }
  }
  attr {
    key: "value"
    value {
      tensor {
        dtype: DT_STRING
        tensor_shape {
          dim {
            size: 1
          }
        }
        string_val: ""
      }
    }
  }
}
node {
  name: "save_1/RestoreV2_5"
  op: "RestoreV2"
  input: "save_1/Const"
  input: "save_1/RestoreV2_5/tensor_names"
  input: "save_1/RestoreV2_5/shape_and_slices"
  device: "/device:CPU:0"
  attr {
    key: "_output_shapes"
    value {
      list {
        shape {
          unknown_rank: true
        }
      }
    }
  }
  attr {
    key: "dtypes"
    value {
      list {
        type: DT_INT64
      }
    }
  }
}
node {
  name: "save_1/LookupTableImport_1"
  op: "LookupTableImport"
  input: "tables/type_to_ids/type_to_ids"
  input: "save_1/RestoreV2_4"
  input: "save_1/RestoreV2_5"
  device: "/device:CPU:*"
  attr {
    key: "Tin"
    value {
      type: DT_STRING
    }
  }
  attr {
    key: "Tout"
    value {
      type: DT_INT64
    }
  }
  attr {
    key: "_class"
    value {
      list {
        s: "loc:@tables/type_to_ids/type_to_ids"
      }
    }
  }
}
node {
  name: "save_1/restore_all/NoOp"
  op: "NoOp"
  input: "^save_1/Assign"
}
node {
  name: "save_1/restore_all/NoOp_1"
  op: "NoOp"
  input: "^save_1/Assign_1"
  input: "^save_1/LookupTableImport"
  input: "^save_1/LookupTableImport_1"
  device: "/device:CPU:*"
}
node {
  name: "save_1/restore_all"
  op: "NoOp"
  input: "^save_1/restore_all/NoOp"
  input: "^save_1/restore_all/NoOp_1"
}
node {
  name: "Merge_1/MergeSummary"
  op: "MergeSummary"
  input: "input/input_producer/fraction_of_32_full"
  input: "batch/shuffle_batch/fraction_over_396479_of_396479_full"
  input: "batch/train/eval/summaries/mean"
  input: "batch/train/eval/summaries/stddev_1"
  input: "batch/train/eval/summaries/max"
  input: "batch/train/eval/summaries/min"
  input: "batch/train/eval/summaries/histogram"
  input: "batch/corrupt/eval/summaries/mean"
  input: "batch/corrupt/eval/summaries/stddev_1"
  input: "batch/corrupt/eval/summaries/max"
  input: "batch/corrupt/eval/summaries/min"
  input: "batch/corrupt/eval/summaries/histogram"
  input: "batch/summaries/mean"
  input: "batch/summaries/stddev_1"
  input: "batch/summaries/max"
  input: "batch/summaries/min"
  input: "batch/summaries/histogram"
  input: "batch/learning_rate"
  attr {
    key: "N"
    value {
      i: 18
    }
  }
  attr {
    key: "_output_shapes"
    value {
      list {
        shape {
        }
      }
    }
  }
}
versions {
  producer: 22
}
